PLCMOS/models/plcmos_v1_nonintrusive.onnx (onnx, 128653 bytes, 17 tensors)

in_blocks.0.conv1.weight f4 [32, 1, 3, 3]
000000 9f d3 2a be 91 7c 72 3e b9 55 0b be 4a b8 8a 3e
       -0.1668229 0.23680331 -0.1360692 0.27093726
000010 eb ec 15 3f 54 29 44 be e6 57 1b be 43 fe f2 bc
       0.58564633 -0.1915639 -0.1517025 -0.029662257
000020 52 40 b2 be 06 ca 49 3e 3f 91 3b be bf f6 0e be
       -0.34814698 0.19705972 -0.18317126 -0.13961314
000030 35 53 31 3e ca 21 2e be 93 bf 4d 3e c7 f7 a9 be
       0.17316897 -0.17005077 0.20092611 -0.33196852
000040 ee 76 c3 3e d8 7d 18 bd e6 96 34 be 8b db 98 be
       0.38176674 -0.03722939 -0.17635688 -0.29854998
000050 b8 8b cd bc e2 fa 91 3e ff 0a a1 3d b7 d4 49 3f
       -0.025091037 0.2851172 0.078634255 0.788402
000060 d3 e4 d4 be 06 95 ce be 80 65 11 3e ab 0c b4 bd
       -0.4158083 -0.4034807 0.14198875 -0.08791479
000070 68 e4 1e 3d 8c 6c 38 be b2 82 b3 bd f1 b0 10 3f
       0.038792044 -0.18010157 -0.087651625 0.5651999
000080 93 66 86 be d2 74 47 3e f2 0a e8 3e 67 0f a3 be
       -0.26250133 0.19478157 0.4532085 -0.3184769
000090 4a 97 ca 3e 0e 20 e0 3c 06 87 65 3e 76 7d 43 bc
       0.3956855 0.027359035 0.22414789 -0.011931768
0000a0 ea 8f 70 be 44 ef fb bd 64 7b 4c be e1 df 99 be
       -0.23492399 -0.12301496 -0.19968945 -0.3005362
0000b0 b6 18 db bd ed 40 2f 3e cf 6c 19 3f 8e 89 eb 3e
       -0.106980726 0.17114611 0.59931654 0.46003383
0000c0 ea b6 56 bd 41 93 65 be c1 12 2c 3e 5d 47 8e be
       -0.052420534 -0.22419454 0.16804029 -0.2778882
0000d0 b9 82 93 be 30 f4 b9 be 8f f5 b4 bd c5 aa 84 be
       -0.2881067 -0.36319113 -0.08835899 -0.25911537
0000e0 ac 59 5a be 69 60 9b 3e 33 e0 2a 3f d6 ae d9 3e
       -0.2132327 0.30346993 0.6674835 0.42516202
0000f0 37 75 88 be 1f bd a1 be ad a4 51 be 75 d0 1c 3f
       -0.26651928 -0.315896 -0.20472975 0.6125558
000100 a0 26 1e be d2 a7 c7 be 99 24 d8 bd d6 fe 0d be
       -0.15444422 -0.38995224 -0.105538554 -0.13866743
000110 e0 33 d6 bd a4 1a 65 3e ab 3b d5 bd 43 74 24 3e
       -0.10459113 0.22373444 -0.104117714 0.16059975
000120 de b8 bc be f7 94 bf be a2 00 60 3e 26 43 79 bd
       -0.36859792 -0.3741834 0.21875241 -0.060855053
000130 a3 4e 25 be b6 c5 8f 3c 5b 43 f8 3e 6a 03 2a 3f
       -0.16143279 0.01755033 0.48488888 0.6641146
000140 6a e0 a2 be a2 85 d1 3e f2 a5 d8 3e 6c 90 be 3e
       -0.3181184 0.40922266 0.42314106 0.3721956
000150 dc bc b8 3c c2 e7 85 be fc 3f 92 be 67 76 cc be
       0.022550993 -0.2615338 -0.2856444 -0.39934084
000160 f3 58 55 bc 6d 57 02 bb d1 12 00 3f b8 94 b3 3e
       -0.013021695 -0.0019888536 0.5002871 0.350744
000170 b0 44 46 be 9b c3 ff bd f5 51 2c be 1d 19 70 3d
       -0.1936214 -0.12488481 -0.16828139 0.0586177
000180 e5 35 f6 bd ce c5 26 be ef 8a 52 bd ad 4d 8e 3d
       -0.12021998 -0.16286394 -0.05140203 0.06948409
000190 74 ed 60 be 34 fd 43 3d 6c 5b 01 3d 12 e5 d1 be
       -0.21965581 0.047848895 0.031581327 -0.4099508
0001a0 3a 6b b0 3e 44 93 14 bd fd e9 48 be 21 18 c9 3e
       0.34456807 -0.036273256 -0.1962051 0.3927622
0001b0 31 b4 95 be 2b 7e 81 be d1 d6 15 3d e3 e6 56 be
       -0.29239038 -0.2529157 0.036581818 -0.20986514
0001c0 27 17 73 3e 99 c7 c1 3e d1 0a 9e be e4 49 c9 3e
       0.237393 0.37847593 -0.30867627 0.39314187
0001d0 7c 2c e0 3d 9a 29 26 be df c5 87 3d 5b 5f 01 be
       0.10945985 -0.16226807 0.06629538 -0.12634031
0001e0 1b bf 17 3e af 43 a5 3e 3a ca 4d 3d 05 ea 15 3c
       0.14818995 0.322782 0.050241686 0.009150033
0001f0 9e 74 e3 3d 2a a0 11 be 43 96 6f be 1f f2 fa 3e
       0.11106227 -0.14221254 -0.23397164 0.4901285
000200 a7 80 b6 3e c4 22 28 bd c8 b4 f3 bd 53 12 ef bc
       0.3564503 -0.04104878 -0.11899716 -0.029183542
000210 98 23 63 be b5 95 21 be 56 66 82 be 86 51 0e 3e
       -0.22181547 -0.15779765 -0.254687 0.13898286
000220 6c 12 5a bc e8 3a 83 be e7 cd f9 3e 7f b4 a4 3c
       -0.013310056 -0.2563088 0.48789904 0.020105598
000230 9c 8b 38 be 32 0b 5e 3e 8f a6 0c be 58 cb 6e be
       -0.18022007 0.21683958 -0.13735412 -0.23319757
000240 4d 65 79 be 0d 34 85 3d 37 c6 0f 3f 34 98 bc be
       -0.2435505 0.065040685 0.56161827 -0.36834872
000250 ce ad dd 3c c5 13 a3 3e f1 ac 96 be 09 7f 94 3c
       0.027060416 0.3185102 -0.2942882 0.018126981
000260 48 4c a3 bd 22 ba 90 be c5 62 5b be db 24 ab be
       -0.07973534 -0.28267008 -0.21424396 -0.33426556
000270 24 a3 48 3e 0e 92 a5 3e f2 79 b5 be 26 41 d0 3e
       0.19593483 0.32337993 -0.354446 0.40674704
000280 ed a0 d2 3e 7d 31 b6 bd 42 a9 0a 3c 98 7a bd 3d
       0.41138402 -0.08896158 0.008463206 0.092518985
000290 ef c8 58 3e cd 4f 9a be 52 9f b6 be 33 2f be be
       0.211704 -0.30139008 -0.35668427 -0.37145385
0002a0 3e 0e bb 3e a0 d4 c4 3e 61 60 61 3e ab 4e 1c 3f
       0.36534303 0.3844347 0.22009422 0.6105754
0002b0 7d 23 53 3d 94 60 48 be e4 b0 ec 3d 0c 59 9b be
       0.051547516 -0.19568092 0.11557177 -0.30341375
0002c0 7f a5 a8 be cf c5 d2 3d 51 55 fc bd 8f 92 98 3d
       -0.32938763 0.10291635 -0.1232096 0.07449829
0002d0 c4 91 f0 bc af 10 7c 3d 9c 5b 8c be 35 ed 8e be
       -0.029366381 0.06153935 -0.27413642 -0.2791535
0002e0 bb 11 6d 3e 0e 0d 5c be 05 8b 80 bd 4e 0e 1d 3d
       0.23151295 -0.21489355 -0.06276516 0.03834372
0002f0 f4 8e c7 bd 74 36 c6 bd 8f 04 80 be ef e0 16 3e
       -0.09744063 -0.09678355 -0.25003478 0.14734243
000300 a6 0a 4d 3e 66 4a 88 be 24 dd ac bc 76 79 00 3e
       0.20023593 -0.26619262 -0.021101542 0.12546334
000310 a8 a1 8b bc 2e 5f 99 3e a7 fd fd bd 7d 1a c2 be
       -0.017044857 0.2995543 -0.12401896 -0.37910834
000320 08 75 d3 3c f5 22 1c 3e 04 f0 33 be 7a af 41 3e
       0.02581264 0.1524771 -0.17572027 0.18914595
000330 c7 b7 65 3e 2c 94 50 bd 96 95 b9 bd 3a f2 3a 3e
       0.22433387 -0.050922558 -0.090617344 0.18256465
000340 24 8d b2 be 92 ea c2 3e ce b6 ce 3e 54 29 2c bd
       -0.34873307 0.38069588 0.40373844 -0.0420316
000350 a2 02 05 be 97 33 cf bd 2f cd 18 be 23 57 f8 bd
       -0.12989286 -0.10117262 -0.14922021 -0.12125995
000360 05 c6 83 be ab 36 a1 be ea 3a d7 be d5 5c 10 be
       -0.25737014 -0.3148702 -0.42037135 -0.14097913
000370 75 69 c5 3e 73 0b 19 bd 10 e6 fd bd 20 22 11 3f
       0.3855702 -0.037364434 -0.123973966 0.56692696
000380 94 f0 e6 3e 6e 4e c1 bd 04 67 da 3e a8 35 96 bd
       0.45105422 -0.094387874 0.4265672 -0.07334453
000390 6e 15 b5 be 46 63 6c 3e a9 9c ca be ec eb eb 3d
       -0.35367912 0.23084745 -0.39572647 0.11519608
0003a0 62 ab cd 3e e4 e9 7f 3c ee d2 c1 3e 7a a5 04 be
       0.40169817 0.015619729 0.3785624 -0.1295375
0003b0 7b e4 1f be a9 40 12 3e 7e c6 2a 3f d7 1d 63 bd
       -0.15614502 0.14282478 0.66709125 -0.05544838
0003c0 23 78 e5 be bc d1 a5 be 65 93 cd bc f5 50 03 bd
       -0.4481822 -0.32386577 -0.025094697 -0.03205963
0003d0 9a cb 8f 3c f4 be 37 be 07 89 8e be 81 9c 72 be
       0.01755314 -0.17943937 -0.2783892 -0.23692514
0003e0 ea 67 59 be 02 82 d5 3e f0 e7 f6 3e 80 97 8a 3d
       -0.21231046 0.4170075 0.4822383 0.067671776
0003f0 18 49 ec 3e 48 63 04 3e ea 8c a0 be 30 83 c2 3e
       0.46149516 0.12928498 -0.3135751 0.37990713

in_blocks.0.conv1.bias f4 [32]
000000 7d 5c e7 bc ee ef d7 bb e4 96 e5 bd 8b 5e ab bd
       -0.028242344 -0.006589881 -0.11210421 -0.08367642
000010 22 89 9a be ea 69 08 be ad c6 32 bd 79 8a 72 bd
       -0.3018275 -0.13321653 -0.043646503 -0.05921409
000020 ef 8f 53 bd b9 82 6d bd a4 4e 9c bc ab 2e 81 bd
       -0.051650938 -0.057985995 -0.019080468 -0.06307729
000030 df 99 4c be 78 cf b2 3c 39 5d 00 be 12 7c bb bc
       -0.19980572 0.021827444 -0.12535562 -0.02288631
000040 71 a9 9f bd c9 0b ef bc 10 cf 75 bd 41 71 54 bd
       -0.0779599 -0.029180424 -0.060011923 -0.05186582
000050 32 8b e8 be 71 93 cd bb 0b bf a4 be d4 dc af bc
       -0.45418698 -0.00627368 -0.32177004 -0.021467604
000060 4d e9 79 bd 37 8b 48 bd b4 e7 8b bd 1c 65 21 3b
       -0.06101351 -0.04896089 -0.06831303 0.0024626916
000070 e9 e3 4b be 55 0f 0c be a2 07 b9 be d1 78 0c bd
       -0.1991116 -0.13677724 -0.36138636 -0.034294907

in_blocks.0.conv2.weight f4 [64, 32, 3, 3]
000000 fd 6e d6 3d d1 23 e3 3c fe cc 12 be b7 e7 0e 3e
       0.10470388 0.02772704 -0.14336011 0.1395558
000010 20 dc 9f 3c 82 e5 a8 bd 96 80 16 3e 71 a5 0a 3e
       0.019514143 -0.082469 0.14697489 0.13539673
000020 04 56 21 3c 55 bd d5 bd 3b eb 35 bd 64 f0 7a bc
       0.009847168 -0.10436503 -0.044413786 -0.015316103
000030 23 59 45 bc c8 c6 2c bd 61 14 1d 3c c4 34 92 3b
       -0.012045178 -0.04218176 0.009587378 0.0044618566
000040 e1 57 b5 bd b6 6c 55 bc b5 7a 4b 3e 5e b4 b5 3d
       -0.08854652 -0.013026407 0.19871028 0.08872293
000050 11 92 21 3e 5c 5b a2 3e ac 2f 8d bc f3 23 08 3e
       0.15778376 0.31710327 -0.017234646 0.13294964
000060 7f 09 b0 3e c7 d8 c8 3d 61 00 9c 3d 41 d6 91 3e
       0.34382245 0.09806972 0.0761726 0.28483775
000070 d4 eb 4e 3e b6 c7 8d 3d 86 c8 49 3e 21 e2 72 3e
       0.20207149 0.069228575 0.197054 0.23719074
000080 7a 4d a3 3d f3 12 3b 3e ba cd 49 3e 8b 43 09 3e
       0.07973762 0.18268947 0.19707385 0.13404672
000090 59 c2 bf bc 36 ed 83 3d 8b 79 d4 3d 03 39 44 bd
       -0.023408102 0.06441729 0.10374745 -0.047905933
0000a0 11 0d 09 3e 18 8e b1 3d 64 47 e9 bd fe 7e 23 3d
       0.1338389 0.0866968 -0.1139057 0.03991603
0000b0 13 cb dd 3d c5 fd 04 bf bd 36 04 3b 0e 08 fa 3e
       0.10829749 -0.5194972 0.0020174228 0.4883427
0000c0 67 e6 a0 be 7a fa 71 3d ef e1 a7 3e a0 df 63 be
       -0.31425783 0.059076764 0.3278956 -0.22253275
0000d0 a8 0e f8 bd d3 89 90 3e 47 4c cb bc 86 1d 16 be
       -0.121121705 0.28230152 -0.024816645 -0.146597
0000e0 04 d5 b2 bd 0d 22 9c 3d 2a ed 07 bf 8c 3f 14 be
       -0.08732036 0.07623682 -0.5309626 -0.14477366
0000f0 ba 8e 75 bd e5 d7 0b bf 23 27 48 be 4d 79 cd 3d
       -0.059950568 -0.54626304 -0.1954618 0.10032902
000100 28 5d f7 bd b6 12 c1 bc b0 97 99 3d 99 cf 07 be
       -0.12078315 -0.023568492 0.07499635 -0.13262786
000110 a2 b0 b1 3d a3 9b da 3b 03 c0 61 bd c0 ba 82 3d
       0.08676268 0.0066713854 -0.055114757 0.06383276
000120 6b af b9 be f8 a6 be be f5 cc 8a 3e 9e 1c 45 bf
       -0.36266646 -0.37236762 0.27109495 -0.7699679
000130 f9 87 a3 be 88 77 d4 3d 72 f9 97 bf 1d 9e 9d be
       -0.31939676 0.10374361 -1.1873 -0.30784693
000140 98 c7 c9 bd 44 82 20 bf 5d 20 08 bf 5d 25 3b be
       -0.098525226 -0.6269877 -0.5317438 -0.18275972
000150 03 fd 91 be cb 28 94 be f3 cd 0c be ba 78 08 be
       -0.28513345 -0.28937373 -0.13750438 -0.13327304
000160 af 35 5f be 52 de 1b 3e ca 3e 83 be 39 6d 9b be
       -0.21797822 0.15221527 -0.25633842 -0.30356768
000170 be 2c 2e be 72 8c 91 be 55 2f 77 be 64 0a c9 bd
       -0.17009255 -0.28427464 -0.2413915 -0.09816435
000180 8b c1 88 bd 83 4a da bd f5 5e 9f bd 69 4f 53 3e
       -0.066775404 -0.10658743 -0.077817835 0.20635761
000190 c5 b8 2b 3e 02 92 c9 3e 0f a8 d6 3d f4 a2 87 3e
       0.16769703 0.39369208 0.104812734 0.2649151
0001a0 b7 90 49 3d 7f 13 64 3e e5 d8 e0 3e d9 b7 17 3e
       0.049210276 0.22273062 0.43915477 0.14816226
0001b0 7d 37 af 3e b4 36 8a 3d c0 ff 1c 3e 43 ec e6 3e
       0.34222022 0.06748715 0.15331936 0.45102128
0001c0 c5 72 98 3e 9d b0 74 bc 0e 66 bd 3e 62 f4 9e 3e
       0.29775062 -0.014934686 0.36991924 0.31045824
0001d0 1a f0 8d bd bf 38 4e 3e 58 47 21 bc 49 7f d2 3a
       -0.06930561 0.20138834 -0.00984367 0.0016059662
0001e0 63 7a 1e 3e 77 e1 ca 3b 33 ae 90 3d 76 0b 12 3e
       0.15476374 0.0061914283 0.07064476 0.14262185
0001f0 bb 47 9a 3c 69 8b 79 3d 88 b4 2e be 72 51 b7 bc
       0.018833032 0.060923968 -0.17061055 -0.022377703
000200 85 9e 18 3e 77 6d 98 3c 62 fc e6 3c 53 e6 31 bd
       0.1490422 0.018606884 0.028196517 -0.043432545
000210 1e cb 82 be 90 b4 10 be 3a ff e2 bc 6e 1c aa 3d
       -0.2554559 -0.14131379 -0.027709592 0.08306204
000220 35 72 bc bd 30 2f b8 3d f0 87 ba 3b f1 97 27 bd
       -0.09201471 0.08993375 0.0056924745 -0.040916387
000230 09 cc a7 3d fc 92 7f 3d 8b 47 af 3c fb be ed 3d
       0.081932135 0.062396035 0.021396419 0.11608692
000240 56 e6 6e 3e 49 d6 3c 39 69 62 17 3d 38 a5 4f 3d
       0.23330054 0.00018008905 0.036959086 0.050694674
000250 a0 1f 22 3e a2 48 ec 3d 66 c4 6c 3e 3c 73 56 3e
       0.15832376 0.11537291 0.23121795 0.20942396
000260 ac f3 68 3d cd 52 a5 b9 9d 17 29 3e 60 a6 4a 3e
       0.05687301 -0.00031532944 0.16512914 0.1979003
000270 0d 9f 61 3c 53 9e a2 3d 18 fb 07 3e 01 3d 84 bd
       0.013770831 0.07940354 0.13279378 -0.06456948
000280 79 00 f9 3c 89 0e 9c 3d 0b ac d2 bd 68 58 4b be
       0.030395733 0.0761996 -0.10286721 -0.19857943
000290 a2 a3 92 bd d6 67 62 bd 58 3c 69 be ca 45 d3 bd
       -0.07160117 -0.055274807 -0.22776926 -0.103160456
0002a0 84 20 bd bd 7f 47 27 be a7 2a d5 bd 8b cf 30 3d
       -0.092347175 -0.16335867 -0.10408526 0.04316668
0002b0 8d 2c 2f be 99 4f e2 bc fe b2 b8 bc e5 a4 5e be
       -0.17106839 -0.027625846 -0.022546288 -0.2174259
0002c0 31 c1 aa 3d a8 27 6b bc e1 76 74 bd 6b bb 7c 3d
       0.083376296 -0.0143527165 -0.059683684 0.061702173
0002d0 b0 50 03 be 32 bd 92 3d 46 ba a9 3d 4b 94 26 be
       -0.12823749 0.071649924 0.08287482 -0.16267507
0002e0 e2 31 94 3d 8a bf ac 3d 6c 22 27 be 95 71 9e 3d
       0.07236077 0.08434971 -0.16321725 0.07736508
0002f0 08 a6 6d 3d 3e 42 86 3d 9b c7 5e 3c 25 35 4f 3e
       0.058019668 0.065556034 0.013597394 0.20235117
000300 84 a6 b7 bc d8 c1 03 3d cf 54 a4 3d b3 2b c6 bd
       -0.022418268 0.032167286 0.080239885 -0.09676304
000310 41 2a ae 3d 61 01 a9 bc fb 9e 85 bd c8 10 3a 3d
       0.08504153 -0.02063054 -0.06524464 0.04542616
000320 84 fc 74 3e b0 db e8 bc 51 52 10 3e 7b 86 b4 3e
       0.23924452 -0.028425068 0.14093901 0.3525885
000330 77 95 f4 bd c2 98 0c 3e 39 6c 0e 3e 72 87 81 3d
       -0.11942571 0.13730147 0.13908471 0.06324662
000340 6d c3 b2 bd b5 48 de 3d 30 e5 29 bc 30 08 25 bc
       -0.08728681 0.108537115 -0.010369584 -0.010072753
000350 fd 8a dd 3d 28 79 b1 bd f0 b2 2c 3d fa 05 cf 3d
       0.108175255 -0.08665687 0.042162836 0.10108562
000360 c9 ec e5 3d 40 ba 71 3d 6f 8a 08 3e e0 9d 3e 3d
       0.11226804 0.059015512 0.13334058 0.04653728
000370 6a 5b a3 ba 24 bd 0c 3d 81 f8 3a bd 3b 08 ea bd
       -0.0012463157 0.034360066 -0.045647148 -0.11427351
000380 85 41 ed 3c 50 23 b9 3e 26 e1 13 3e 1d 14 9d bc
       0.028961906 0.36159754 0.14441356 -0.01917463
000390 09 e8 ae 3e 38 fc 0c 3e 36 24 17 3d 9f 16 b3 3e
       0.34161404 0.13768089 0.036899768 0.34978196
0003a0 be d0 b0 3d 37 de 08 3d 7f c8 d9 be 85 db 4b be
       0.086335644 0.033415046 -0.4253578 -0.19907959
0003b0 bc 00 2f be 7c f4 5f be ab bc 12 bf bc 3e 2a be
       -0.17090124 -0.21870607 -0.57319134 -0.16625494
0003c0 dd 8e 7f be d8 76 d1 be a6 86 b5 bd f2 f5 8b 3d
       -0.24956842 -0.40910983 -0.08863573 0.0683402
0003d0 e1 03 8c 3d 65 6b c3 3d 2a d6 a1 3d 75 94 d8 39
       0.06836677 0.09541968 0.07902177 0.0004130934
0003e0 82 c7 bb 3d ac 61 71 3d dc 8b 3f bb f5 05 66 3d
       0.091689125 0.058931038 -0.002922765 0.056158025
0003f0 20 53 4d bd ef 16 4d bc cf 9b 25 3e 51 7f 3f be
       -0.050128102 -0.012517675 0.16172718 -0.18700911

in_blocks.0.conv2.bias f4 [64]
000000 a4 ff 82 be e9 1a 42 be c8 a4 d4 bd 7f a3 69 bd
       -0.25585663 -0.18955578 -0.10382992 -0.057040688
000010 18 b8 72 bd e5 bd 67 bd 24 16 a1 be 5a ad da bd
       -0.059257597 -0.056577582 -0.31462204 -0.106775954
000020 d5 32 90 be 24 db 0a be 78 04 b1 bd ae 15 de bd
       -0.28163782 -0.13560158 -0.086434305 -0.10843979
000030 dd ea cb bd 35 81 c6 bd ea 44 57 3d 96 c7 ab bd
       -0.09956906 -0.09692613 0.052555956 -0.08387677
000040 ee ba 1a be ad 22 9c be ab de e6 bd 56 8c 09 be
       -0.1511037 -0.30495206 -0.11272939 -0.1343244
000050 75 fe 69 be 72 07 3f be 10 aa cd bd d5 98 91 be
       -0.22850974 -0.18655184 -0.100422025 -0.28436914
000060 8b c9 de bd 3d eb 3e be 82 9b 76 be ab 81 2d bd
       -0.10878285 -0.18644424 -0.24082759 -0.04235999
000070 4d 37 f5 bd 14 f5 ad 3d a7 61 10 bc 07 8e 7f be
       -0.119734384 0.084940106 -0.008812345 -0.24956523
000080 d9 79 b4 bd ea 97 ba bd 5c 33 9d 3c 56 fe 1e 3d
       -0.08812303 -0.091110066 0.01918953 0.038816772
000090 37 31 b3 bd 16 0f 1f be 36 24 da 3d 64 b7 85 be
       -0.08749621 -0.15533099 0.10651438 -0.26116478
0000a0 c6 93 13 be 6e 7a 17 3e 61 81 1a be ef a6 b5 bd
       -0.1441184 0.14792797 -0.15088417 -0.08869731
0000b0 45 0c d0 bd b9 e3 9c bc 9b 56 f0 bd a2 be bf be
       -0.1015859 -0.019151555 -0.11735269 -0.3745013
0000c0 3f 8b 3d be 1e a5 4d be 3e 35 85 be b9 f3 09 be
       -0.1851015 -0.20082518 -0.26017183 -0.13471879
0000d0 8d ed 8e bd 50 02 92 be b0 b7 0c be f4 70 ec bd
       -0.06978903 -0.2851739 -0.13741946 -0.115449816
0000e0 bf 10 72 be c8 6f 63 be 27 0a fb bd 8a f7 00 be
       -0.236392 -0.2221061 -0.12257796 -0.12594429
0000f0 64 6c c8 bd 06 e1 37 3d ad be 40 be 28 d9 ad bd
       -0.09786299 0.044892333 -0.18822737 -0.08488685

in_blocks.0.conv4.weight f4 [16, 64, 3, 3]
000000 85 ec 9e be 83 5c 92 be bc 72 13 be 19 79 35 be
       -0.31039825 -0.28586206 -0.14399236 -0.17721976
000010 c1 8e 05 be cd 49 a3 bd 93 5c 19 be ab 2b d2 bd
       -0.13042738 -0.07973061 -0.1497672 -0.10262235
000020 cc 1a b7 bd fe ba 5b be 95 78 04 be 38 dc d1 be
       -0.08940658 -0.2145805 -0.12936623 -0.40988326
000030 c0 0c 45 be f1 22 9d bd bb e0 a9 be eb b0 f6 3d
       -0.19243145 -0.0767268 -0.33179268 0.12045463
000040 6a a2 01 be 8c a1 0a be aa 22 8f 3e 2d 46 4f bd
       -0.12659612 -0.13538188 0.27956134 -0.050604034
000050 70 6f b3 3d 9b 7e ab 3e 88 80 28 bd 82 f5 d3 3d
       0.087614894 0.3349503 -0.041138202 0.10349561
000060 b1 cd 87 3e a8 4e 87 bd 0e fb bf 3c f1 42 4a be
       0.26524118 -0.06606799 0.023435142 -0.19752099
000070 ca 71 07 be df 68 07 be 51 78 00 bd 27 52 70 bd
       -0.13227001 -0.13223599 -0.031364743 -0.058672097
000080 8e b1 65 bd f1 22 83 bc d1 70 13 be 14 42 b6 bd
       -0.056077532 -0.016007872 -0.14398505 -0.08899322
000090 80 9c 04 3f 74 ec 78 be c6 cd 9d be 9d 3b 80 3e
       0.518013 -0.2430895 -0.30821055 0.2504548
0000a0 be e0 73 be ad 66 90 be 78 31 82 3e 32 a6 d9 bd
       -0.23816201 -0.28203335 0.25428367 -0.10627402
0000b0 43 cf 9a be 9c b7 ab bd 12 f2 d1 bd d6 c9 5b bd
       -0.30236253 -0.0838463 -0.102512494 -0.053659283
0000c0 c7 40 f8 3d b5 2b 6b bd 5f d3 a0 bc 9a ef 23 3e
       0.1212173 -0.05741473 -0.01963204 0.1600937
0000d0 eb 7a 7f bb b1 e5 96 3d f3 6b 6a 3d 41 d4 80 bc
       -0.0038983177 0.07368029 0.057231855 -0.01572621
0000e0 57 ac 7e bc 5b 73 92 3d d8 b8 b6 3d ca f7 1b 3d
       -0.015544019 0.071509086 0.08921975 0.038078107
0000f0 af 9b 1f 3e 42 dd f7 3d e7 de a3 3d 0a 5d 0d 3e
       0.15586732 0.121027485 0.080014996 0.13805023
000100 74 78 ea 3c 18 15 94 bc 35 0f 11 be ff 06 f1 bd
       0.02862189 -0.018076465 -0.14165957 -0.117689125
000110 37 18 9d bd cd 77 5c bd f6 e2 37 be af ee 56 3c
       -0.07670634 -0.05382519 -0.17957672 0.01311843
000120 b7 38 64 bb f3 31 48 be 14 f4 cd be f5 b0 a4 3c
       -0.0034823844 -0.19550304 -0.4022528 0.020103911
000130 41 86 9e be 47 0d aa be 92 37 e6 bd c2 97 d2 bd
       -0.30961803 -0.33213255 -0.11241068 -0.10282852
000140 20 36 0c be 3a cf ba 3d f2 11 15 3e d5 27 96 3d
       -0.13692522 0.091215566 0.14557627 0.07331816
000150 3e b4 84 3e 23 02 f7 3e 5c 04 8e 3e 99 d2 20 bd
       0.25918764 0.48243818 0.277377 -0.03926334
000160 7a 4a 8c 3c 1f bf 40 be 40 73 6b bc 29 88 0c 3d
       0.017125357 -0.18822907 -0.014370739 0.03430954
000170 9a 75 b7 3d 7a fc f7 3e 72 d7 30 3e 0f 77 85 3e
       0.089579776 0.48434812 0.17269686 0.26067397
000180 6b 0d b1 bd 17 0a 1a 3e e8 99 a8 3d 37 d0 d1 bd
       -0.086451374 0.15042911 0.0823248 -0.10244792
000190 2c cb e6 bc 52 94 bd bd 91 cd df bb 1a d6 74 3e
       -0.028173052 -0.092568055 -0.0068299253 0.23909798
0001a0 01 ae 2f 3e f7 ca bc 3e d7 db ce 3e 02 fd 94 3e
       0.17156221 0.368736 0.404021 0.2909928
0001b0 f9 55 f7 3d 50 b4 b5 3d f3 11 b1 3d 9c aa 00 3e
       0.12076945 0.088722825 0.08646002 0.12565082
0001c0 c0 54 dc 3e 06 22 9d 3e c4 1c b9 bd 98 29 0e 3e
       0.4303341 0.3069002 -0.0903869 0.13883054
0001d0 79 15 86 3d 78 21 b5 bd a1 15 24 3d cc 55 be 3d
       0.06547064 -0.08844274 0.04005969 0.09293708
0001e0 20 a2 5f 3e 05 e0 5f 3e 3d 87 d9 3e 81 cc 05 be
       0.2183919 0.218628 0.4248599 -0.13066293
0001f0 78 cc ac 3c 98 a6 b5 bb 4c 3b 28 3e e2 c7 cb bd
       0.021093592 -0.005543541 0.1642887 -0.09950234
000200 1e e9 5e 3d f3 0d ca 3e ce 86 51 be 93 83 a7 bb
       0.054421537 0.39463767 -0.2046158 -0.0051121204
000210 27 bf 04 bd 1d d7 ab be 8b 28 61 be 6f bf f2 3e
       -0.03240886 -0.33562556 -0.21988122 0.47411677
000220 9b d9 aa 3e 3f 87 38 3e b6 9d d1 bd b0 62 2b bc
       0.33369145 0.18020342 -0.10235159 -0.010460541
000230 e4 53 60 bc 06 8f 8b 3d 62 5a ad 3d 5e 13 31 3c
       -0.013691876 0.06814389 0.08464505 0.01080784
000240 9e f1 62 3e 14 43 b9 bd 6b ed 32 3d df f1 81 3d
       0.22162482 -0.09045997 0.04368345 0.063449614
000250 61 ba 8c bd ea 73 8b bd c9 6c b9 3e 77 49 3c bd
       -0.068714865 -0.06809218 0.3621581 -0.0459685
000260 c6 b4 e2 bd 87 b8 c6 bd 06 c6 39 be 63 d8 2b be
       -0.11069636 -0.097031645 -0.18141946 -0.16781764
000270 0d 65 25 3e e7 e4 e7 3d 71 cf 15 bd 8d 18 32 bd
       0.16151829 0.113229565 -0.036574785 -0.043480445
000280 5e b9 93 bd af 0e aa bd f6 2d 03 3e de 1a 06 3e
       -0.0721309 -0.08303582 0.12810501 0.13096187
000290 70 34 41 3e b8 b6 0e 3e c6 93 70 3e b8 3b ca 3d
       0.1886766 0.13936889 0.23493871 0.09874672
0002a0 d5 6c 89 bd a4 ff 2d 3e b2 8c 0c 3e 8e 9f 14 3f
       -0.06710211 0.1699205 0.13725546 0.5805596
0002b0 b4 e8 dd 3d 7e 34 72 3e 13 38 6f 3e 58 34 c2 3d
       0.108354 0.23652837 0.23361234 0.0948264
0002c0 3b e9 5b bc a9 b3 2a 3e 51 10 45 3d 2b bf ad bd
       -0.013422306 0.16670097 0.048111264 -0.08483728
0002d0 a5 97 0d be af da 70 bd 39 42 9b bd da 74 73 be
       -0.13827379 -0.058802303 -0.0758099 -0.23775044
0002e0 25 fa 4e be 47 82 a3 be 35 66 85 be 2e 7c ad bd
       -0.2021261 -0.3193533 -0.2605454 -0.08470951
0002f0 f8 8b 6c be 12 ce c1 3e 48 d7 cb 3d 72 7f 9c 3d
       -0.23100269 0.37852532 0.09953171 0.07641496
000300 3f a1 c2 bd 59 8d 44 be ad 87 04 be fe 79 87 3d
       -0.095034115 -0.19194545 -0.12942381 0.06615065
000310 19 4b 56 bd 92 2e 13 3e 49 ba 97 bd ed 4b 75 bc
       -0.052317712 0.14373234 -0.07408578 -0.014971715
000320 c7 1b a7 3d 66 a7 a9 3d 0b ef 1f 3c 86 dc 78 3d
       0.08159595 0.08283882 0.009761582 0.060757183
000330 cc 99 89 3d a0 10 95 3e 83 82 8a 3d 43 67 94 bd
       0.067187876 0.29114246 0.067631744 -0.07246258
000340 7b 2c 8c 3c 4b 82 0f bd dd aa a1 bc e8 48 8e 3d
       0.017111054 -0.035036366 -0.019734794 0.069474995
000350 3e 81 61 bc b6 82 31 3e ea b3 ed 3d 2e 6d d3 bc
       -0.013763724 0.17335019 0.116065815 -0.025808897
000360 b0 96 42 3d 6b 1c b2 3d cc dc 86 bc 01 9a c3 bd
       0.047506988 0.086968265 -0.016462706 -0.09550858
000370 8b 2f 32 bd 1f 31 0a be a0 d7 f4 3d ee 87 7b 3d
       -0.04350237 -0.134953 0.1195519 0.06140893
000380 4b c3 88 3d be 73 c0 3e bc 79 d3 3c ea 65 74 be
       0.06677874 0.37588304 0.025814883 -0.23867002
000390 93 f9 37 3d ba 23 35 be 00 04 90 be 38 7e 87 bc
       0.044915747 -0.1768941 -0.28128052 -0.016539678
0003a0 8a 83 64 bd 4a 20 d1 bd 05 0a b7 be 34 60 46 be
       -0.055789508 -0.10211237 -0.35749832 -0.19372636
0003b0 aa 66 99 be a2 bb 40 be 22 c3 ce bd 3f 65 db bd
       -0.2996114 -0.18821576 -0.100958124 -0.107126705
0003c0 8e 22 51 bd 1d 56 11 be d0 54 22 be c0 65 f6 bc
       -0.051058345 -0.14193006 -0.15852666 -0.030077815
0003d0 9c ed 24 3d 1e eb 13 3c 88 48 4b bd 55 a8 11 3d
       0.040265664 0.009028224 -0.049629718 0.035560925
0003e0 d7 b5 91 3b 07 29 0f be e5 15 48 3c 98 51 21 bd
       0.004446726 -0.13980494 0.012212251 -0.039384454
0003f0 07 4f c2 bd 49 29 c8 be 7e 1a 61 be 87 ba 24 bd
       -0.094877295 -0.39093998 -0.21982762 -0.04021695

in_blocks.0.conv4.bias f4 [16]
000000 7c bc 5e bd ed 65 32 be 53 21 e6 bd 42 43 e9 3c
       -0.05437897 -0.17421694 -0.11236825 0.028474454
000010 a7 01 14 be 18 12 0c be 8e 41 24 be 6d 4a 01 bd
       -0.14453755 -0.13678777 -0.16040632 -0.03156512
000020 c3 57 66 be fa 8d dc bb 65 bd 29 bd 68 8c d6 bd
       -0.22494416 -0.006730792 -0.041440386 -0.10475999
000030 f1 91 d9 bd b1 95 56 bc ad 07 f0 bd 4c d4 54 be
       -0.10623539 -0.013097213 -0.11720214 -0.2078411

dense1.weight f4 [16, 16]
000000 80 46 9f bd fe b8 12 bf 51 f2 28 be c4 61 05 bd
       -0.07777119 -0.57313526 -0.16498686 -0.03256394
000010 a7 55 f4 3e c0 bf 8c 3d 99 c2 8b 3e b1 1a c4 bc
       0.47721598 0.06872511 0.27296904 -0.023938509
000020 04 4d 56 3e 48 f1 3c be 98 fb a1 3d d3 84 a4 be
       0.20927817 -0.18451416 0.07909316 -0.32132587
000030 38 08 9a 3e 47 08 62 bb f3 87 c9 3e 80 18 a3 3d
       0.30084395 -0.0034489797 0.39361534 0.079636574
000040 29 0e b8 bb d3 20 b5 be d9 c7 80 3d b4 6f 05 3d
       -0.0056169224 -0.35376605 0.06288118 0.03257723
000050 49 e8 03 3e 74 cf 8f bc 06 fe 5b 3e aa cf 4a 3e
       0.12881579 -0.017554976 0.21483621 0.1980578
000060 0e 9e b3 3e a7 c5 2c be 58 78 f1 3d e0 29 25 be
       0.35081524 -0.16872273 0.11790532 -0.16129255
000070 3f f3 99 3e d3 45 53 3d 5a 5f 26 3e d4 4d 9a 3e
       0.30068395 0.05158026 0.16247311 0.30137503
000080 1b 47 a5 3c f1 9c 03 3f 4e c5 0f be 5f bb e4 bd
       0.020175507 0.5141135 -0.1404011 -0.11168551
000090 0e 88 73 be 2d fe 6d 3d 63 c8 c4 be 76 84 09 3d
       -0.2378237 0.05810373 -0.38434133 0.03357359
0000a0 df fb cb be dc e0 97 3e b2 83 ab bd 29 30 2c 3e
       -0.398406 0.29663742 -0.08374728 0.16815247
0000b0 05 27 59 be 7f bd 63 3e c7 75 b7 be f0 dc 3f be
       -0.21206291 0.22240256 -0.35832044 -0.18736625
0000c0 b7 b8 d7 bc 1f 5a c3 be 97 c7 c8 3d f7 04 fa 3c
       -0.026333196 -0.38154694 0.09803694 0.030519946
0000d0 42 e3 b1 3e fc 3c 8d 3d 23 8b b5 3e 10 00 7d bd
       0.34743696 0.068963975 0.35457715 -0.061767638
0000e0 84 4b 0d 3e 3a 82 6d be a6 77 c4 3e b5 31 88 be
       0.13798338 -0.23194209 0.38372535 -0.26600423
0000f0 5b 9f be 3c 51 7d 4e be 8a e4 f9 3e fa ea 1a 3e
       0.023269346 -0.20164992 0.48807174 0.15128699
000100 e5 63 e2 3b 68 d8 06 3f 7d 78 ab 3c 4c 36 45 be
       0.006908881 0.5267396 0.020931477 -0.19258994
000110 dd 92 5c be ea 3d 05 3e b8 77 d5 be 9b 70 87 bd
       -0.21540399 0.130119 -0.416929 -0.06613275
000120 51 c6 c4 be d8 73 a9 3e 31 80 89 be 2d d4 02 3e
       -0.38432553 0.33096194 -0.26855615 0.12776251
000130 db 83 a8 be c9 6e 1f 3e 78 20 ca bd 95 38 25 be
       -0.32913098 0.15569605 -0.09869474 -0.16134866
000140 6d 8d 84 3d e2 24 57 be 2c 65 04 3d ee e1 ab 3d
       0.06472287 -0.21010163 0.032323048 0.08392702
000150 ef e9 37 3e 24 da e4 bc 0e a8 7d 3e f1 b9 90 3d
       0.17960332 -0.027936049 0.24771139 0.070667155
000160 f9 45 b6 3e 91 2d 49 be e3 38 9d 3d 58 90 ac be
       0.3560026 -0.19646288 0.07676866 -0.33703876
000170 e7 85 5e 3e b9 e4 5f 3c 82 11 14 3e 1a c1 79 3e
       0.21730767 0.013665372 0.14459804 0.24390069
000180 f2 19 90 3c fc 88 a7 3e b6 30 a3 bd 21 d5 1c be
       0.017590497 0.32721698 -0.07968275 -0.15315677
000190 dd b8 b7 be 47 a5 be 3c 13 05 ba be 35 16 f7 3b
       -0.35883227 0.02327217 -0.36331996 0.007540489
0001a0 a7 34 d2 be ab 16 54 3e 86 e6 17 bd 3c a5 81 3e
       -0.41055796 0.20711772 -0.03708508 0.25321376
0001b0 ba a3 a5 be 2e e3 82 3e c5 9b a3 be 19 8c 08 be
       -0.32351476 0.2556395 -0.3195478 -0.13334693
0001c0 a0 e7 6d bd 81 29 01 bf 1e bf 7f 3d 14 b5 0e 3d
       -0.058082223 -0.50453955 0.062438123 0.03484066
0001d0 14 99 b1 3e 30 7a 82 3d cc 9a c9 3d 80 3e 2e bd
       0.34687102 0.06370962 0.09843978 -0.042540073
0001e0 b8 c8 62 3d a4 a9 aa bd 2d 64 09 3e 7b ca c0 be
       0.0553672 -0.08333138 0.1341712 -0.3765448
0001f0 29 7b 85 3e 39 72 95 be 4a f5 c1 3e 17 26 ec bc
       0.26070526 -0.29188707 0.37882453 -0.028826756
000200 33 24 42 3a e7 08 1a 3f 73 c3 bf bd 8a d1 00 be
       0.0007405907 0.60169834 -0.09363451 -0.12579933
000210 92 3e b4 be a6 cf af 3d dc 1c 96 be 43 71 1f 3d
       -0.35203987 0.08584528 -0.29318893 0.038926374
000220 c2 80 7f be 3b 1a 96 3e ff 94 9b bd ac cc 5d 3e
       -0.24951461 0.29316887 -0.07596778 0.21660107
000230 58 ec cd be c3 46 06 3e fa 6a 58 be 10 1b 15 be
       -0.40219378 0.13112931 -0.21134558 -0.14561105
000240 0f e7 c2 bd e3 0f 16 bf 86 76 f1 bd 4e dd e6 3b
       -0.09516727 -0.5861799 -0.11790185 0.0070454245
000250 db c8 92 3e 06 d1 93 3d 80 f2 97 3e bc 37 c4 bc
       0.28668866 0.072176024 0.296772 -0.023952357
000260 e9 41 0d 3e 8f 91 e4 bd 93 e4 67 3e b3 c7 9a be
       0.13794674 -0.111605756 0.22645788 -0.30230483
000270 51 7b 98 3d 97 0e 8a be 3d 54 f6 3e 68 1d c1 3d
       0.07445396 -0.26964256 0.48111144 0.09429437
000280 5f 42 b7 bd f4 60 fb 3e c1 72 30 be 9e 30 44 bd
       -0.08948206 0.49097407 -0.17231275 -0.047897927
000290 bf 96 b4 be 66 58 a9 bb 3b 8b c6 be a3 34 b4 3d
       -0.3527126 -0.0051680086 -0.387781 0.08799102
0002a0 7d 4c a8 be 47 60 83 3e 85 51 92 be 8c 76 6d 3e
       -0.32870856 0.2565939 -0.2857782 0.23189753
0002b0 30 ae 0a be 34 18 6b 3e 45 53 da be e5 98 77 be
       -0.1354301 0.22958452 -0.42641655 -0.24179418
0002c0 75 57 a5 bc 89 f7 c7 be 61 12 e8 bd c3 97 55 3d
       -0.020183304 -0.39056042 -0.113316305 0.052146684
0002d0 8b 43 2d 3e 0a ca 04 bd 19 30 07 3e d9 14 24 3d
       0.16920297 -0.032419242 0.13201942 0.040058944
0002e0 83 8a 82 3e 1c 2c f4 bd 20 9c 17 3e f7 24 1f be
       0.254963 -0.11922476 0.1480565 -0.15541445
0002f0 84 03 97 3e 21 43 1e bd 4d 76 82 3e 10 56 27 3e
       0.2949487 -0.038638238 0.2548088 0.16341424
000300 53 bd 65 bd 01 b9 c1 be 64 85 cf bd 96 7c a9 3d
       -0.056088757 -0.3783646 -0.10132864 0.08275716
000310 20 ae 0e 3e 77 51 49 bd e3 f9 62 3e a9 a1 a1 3d
       0.13933611 -0.049149957 0.22165637 0.07892162
000320 b1 9c a4 3e cc 7f 2b be b4 0e 63 bc 3b 44 1a be
       0.32150796 -0.1674797 -0.013858486 -0.1506509
000330 f7 e0 d1 3e 96 bf cf bd ad e3 1c 3d 63 5b 89 3e
       0.40991947 -0.10143964 0.038303066 0.26827535
000340 d3 e8 3f 3d ce f2 e2 be 1f 60 1c 3e 88 f9 79 3d
       0.046852898 -0.4432587 0.15271042 0.061028987
000350 ff a6 46 3d 60 85 88 bd 7a 42 8a 3e e3 32 ab 3d
       0.048499104 -0.06666064 0.27003843 0.08359315
000360 54 b5 01 3f 23 1c 56 be 9a a7 b0 3d 65 71 76 be
       0.5066731 -0.20909171 0.086257175 -0.24066694
000370 cc 0c 5f 3e 48 06 6e 3d c1 ad 67 3e a7 c5 a4 3e
       0.21782225 0.05811146 0.22624876 0.32182047
000380 73 43 e2 3c 72 30 a4 3e 5c 22 0f 3e 7d ba 07 3e
       0.027620053 0.3206821 0.13977951 0.13254733
000390 ab 7f c3 be 46 b0 77 bd 47 5b 1f be 5b 65 47 3b
       -0.3818334 -0.06047084 -0.15562163 0.0030425403
0003a0 89 8c 96 3e 5b 75 8f 3d 04 2d 74 be 97 2c 62 3e
       0.29404095 0.07004806 -0.23845297 0.22087322
0003b0 32 5d c5 be 7e 16 9f be 68 5d 0f bf 85 64 48 bd
       -0.38547665 -0.31071848 -0.560019 -0.048923988
0003c0 8f ac 64 bc 6c b8 d5 3e 96 87 74 3d 12 ed 38 bd
       -0.013957157 0.41742265 0.059699617 -0.045147963
0003d0 44 ea a4 be 63 ca 38 bd ef 6d a8 be 7f c0 8a 3e
       -0.3220998 -0.045114886 -0.32896373 0.27099988
0003e0 36 7a e3 3d 23 34 12 3e df 8d a2 be 99 0a ca 3c
       0.11107294 0.14277701 -0.31748864 0.024663256
0003f0 c1 a8 12 bd a9 86 b3 bd e5 ce 21 bf 26 87 08 be
       -0.035805468 -0.08765919 -0.6320632 -0.13332805

dense1.bias f4 [16]
000000 59 07 9d 3d 54 d4 84 be c6 47 30 bc de be e9 bd
       0.07667417 -0.25943244 -0.0107593 -0.11413358
000010 03 bd d5 3d aa 44 cd be 41 3f 5f 3e 00 77 ad bd
       0.10436442 -0.4009145 0.21801473 -0.08469963
000020 f7 cb 8a bd c2 65 1b be d2 6b 0c 3e 5b 01 b1 be
       -0.067771845 -0.15175536 0.13713005 -0.34571347
000030 9a 8f c1 be 26 9d ee 3b 20 d7 9e be c0 85 35 be
       -0.37804872 0.007281917 -0.31023502 -0.17726803

dense2.weight f4 [16, 16]
000000 7d e3 1e bf 1b 12 ae be 57 30 dd 3b c6 6a 4c bf
       -0.6206587 -0.33998188 0.0067501473 -0.79850423
000010 a3 80 ad 3c da 45 7e be 64 1c d1 be d5 ac 3a bf
       0.021179503 -0.24831334 -0.40841973 -0.7291997
000020 24 75 a0 3b 57 f4 4b bf 5a 5e 20 3c 30 e9 16 bf
       0.0048967768 -0.7966971 0.00978812 -0.58949566
000030 6e cf a6 be dc 61 b2 be d2 6d bd 3e 1a 1d 9f 3d
       -0.3258013 -0.34840286 0.3699785 0.077692226
000040 05 8c 61 bc 4f fc 69 3e 16 83 12 bf e1 b1 12 bd
       -0.013766293 0.22850154 -0.5723127 -0.03581417
000050 80 c2 06 bf 55 d1 f2 3e 6f c9 12 bf 44 c3 0a bd
       -0.52640533 0.47425333 -0.57338613 -0.033877626
000060 d5 e5 04 bf c8 ad 30 bd a7 5b 17 bf a3 c4 cf 3d
       -0.51913196 -0.04313448 -0.59124225 0.10144927
000070 13 e3 68 3e d0 f3 23 3e 94 13 2a bd 7b 90 99 be
       0.22742872 0.16010976 -0.041522577 -0.29993042
000080 9b d7 18 bd 40 0a 5a 3e d3 c1 25 bf 8d 2c c4 bc
       -0.037314992 0.21292973 -0.6474888 -0.023947025
000090 50 8a 01 bf 0a 82 d7 3e 5c 55 34 bf 21 76 ad bb
       -0.50601673 0.420914 -0.7044275 -0.005293623
0000a0 b7 3d 0c bf f8 65 3f bd cb b9 13 bf 26 f0 03 3e
       -0.5478167 -0.046728104 -0.5770537 0.12884578
0000b0 38 7c 7e 3e aa fc 2d 3e 44 c5 a7 bd ce 29 aa be
       0.24852073 0.16990915 -0.08191922 -0.3323502
0000c0 7c 1c 2f bf 3f aa 3a be a3 ad 8f bd 86 bc 4f bf
       -0.6840284 -0.18229006 -0.070155405 -0.8114704
0000d0 dd 67 e5 bc 29 de d1 bd f9 90 39 3b 15 7a 70 bf
       -0.028003627 -0.10247452 0.002831517 -0.9393628
0000e0 fa 8a 8c bd 8a 64 67 bf 09 09 92 bd ea 05 f3 be
       -0.06862445 -0.90387785 -0.071306296 -0.4746545
0000f0 d4 a9 5b be be fe 83 be dc 96 14 3f 68 03 19 3e
       -0.21451503 -0.2578029 0.58042693 0.14942706
000100 07 75 67 bf ca d9 c6 be 9a 49 09 bd bb 2d 84 bf
       -0.90412945 -0.38838035 -0.033517458 -1.0326456
000110 6b 45 5a bd f2 3c 4b be e9 63 9b bc a0 e6 95 bf
       -0.05328886 -0.19847468 -0.01896854 -1.1711006
000120 8c 2e 3c bd a1 87 93 bf f3 39 74 bd 18 95 f2 be
       -0.045942828 -1.1525766 -0.059625577 -0.47379375
000130 98 85 ae be a7 cb b5 be 4e 39 25 3f 06 53 54 3e
       -0.340863 -0.35506937 0.64540565 0.20734796
000140 47 f4 81 bd 85 85 8f 3e d0 6d 2a bf 54 83 55 bd
       -0.0634542 0.28031555 -0.6657381 -0.052127197
000150 2d fe 26 bf 8e 6c ef 3e a7 5a 33 bf 27 19 33 bd
       -0.6523159 0.46762508 -0.700602 -0.04372516
000160 a1 94 11 bf db f0 d9 bc 42 c0 2a bf 88 89 ff 3d
       -0.56867415 -0.026604107 -0.6669961 0.12477404
000170 18 2c 94 3e 63 90 2c 3e 19 41 c5 bd 26 d5 d7 be
       0.2893989 0.16851954 -0.09631557 -0.42154807
000180 21 fc 5d bc 33 6f 34 3e 94 26 14 bf 5b f8 17 bd
       -0.013548882 0.17620544 -0.57871366 -0.037102085
000190 79 77 05 bf 14 97 cb 3e 6f 6f 28 bf 51 bb 2a bd
       -0.52135426 0.397637 -0.65795034 -0.041682545
0001a0 5d fe f3 be 13 e6 27 bd 50 c1 1c bf ea 23 24 3e
       -0.47655 -0.0409909 -0.6123247 0.16029325
0001b0 77 00 97 3e b4 0a 18 3e 46 fd 5e bd ad 3d 87 be
       0.29492542 0.14847833 -0.05444076 -0.26414242
0001c0 d4 a4 20 bf ad 76 22 be e3 c5 5e bc 09 e7 40 bf
       -0.6275151 -0.15865584 -0.013596985 -0.7535253
0001d0 1d 2f 15 bd e2 c1 fe bd fc a8 90 bc 90 8d 40 bf
       -0.036421884 -0.12439324 -0.017658703 -0.7521601
0001e0 c6 e9 18 bd 75 74 39 bf e7 bb b7 bc c2 d6 e0 be
       -0.03733232 -0.72443324 -0.022428466 -0.43913847
0001f0 1f d5 2c be ee a3 59 be 6a 86 d2 3e ba e3 e3 3d
       -0.16878174 -0.2125394 0.41118175 0.1112742
000200 b4 93 08 bd 6d 02 94 3e c6 7f 11 bf ca c6 c5 bc
       -0.033343986 0.289081 -0.5683559 -0.024142642
000210 23 f8 1e bf b9 99 e1 3e d7 bf 39 bf b7 88 27 bd
       -0.62097377 0.44062594 -0.7255835 -0.040901866
000220 47 88 17 bf 25 6f 3e bd d2 bb 2c bf e3 25 1f 3e
       -0.5919232 -0.046492714 -0.6747409 0.15541796
000230 ab 5f 90 3e 2b 85 2c 3e 7d 47 38 bd e0 4f a7 be
       0.2819799 0.16847675 -0.04499005 -0.32678127
000240 42 a3 b7 bc 7a 95 88 3e f7 b2 0e bf 69 af 90 bc
       -0.022416715 0.26676542 -0.5574183 -0.017661767
000250 54 4f 1f bf fa 15 fe 3e 78 64 33 bf af 88 20 bd
       -0.6223042 0.49626142 -0.7007518 -0.03919285
000260 c5 24 25 bf fe ab 2b bd e0 41 29 bf 14 f4 1c 3e
       -0.6450923 -0.04191207 -0.6611614 0.15327483
000270 b8 92 a3 3e 26 5f 60 3e f0 40 63 bd 53 47 9b be
       0.31947875 0.21911296 -0.05548185 -0.30327854
000280 21 f6 ca bc 5d 13 66 3e 50 68 14 bf 04 e5 08 bd
       -0.024775567 0.22468324 -0.5797167 -0.03342153
000290 c4 3a f3 be 78 c4 cd 3e 3e d7 fc be cc 7b 99 bc
       -0.47505772 0.40188956 -0.49382967 -0.018735789
0002a0 11 0e 1f bf 5f e5 00 bd fa a6 05 bf e6 64 02 3e
       -0.6213084 -0.031468745 -0.5220791 0.12733802
0002b0 77 ef 66 3e 09 41 0f 3e ec 95 5f bd 0d f1 91 be
       0.22552286 0.13989653 -0.054586336 -0.2850422
0002c0 62 c0 ed bc 43 fd 6c 3e b0 65 09 bf b3 f3 18 bd
       -0.0290224 0.23143487 -0.5367079 -0.037341785
0002d0 b4 ef 10 bf 61 4c d5 3e c3 dc 37 bf 9c 8e a5 bc
       -0.5661576 0.41659835 -0.7182123 -0.020209603
0002e0 c2 2a 0a bf 7a 45 cb bc af 13 10 bf fd 3a ed 3d
       -0.53971493 -0.024813402 -0.56280035 0.11583517
0002f0 56 ef 8c 3e 64 97 21 3e d2 9c a7 bd 03 af 9b be
       0.2752635 0.15780407 -0.08184208 -0.3040696
000300 89 01 c7 3b 84 20 8a 3e f1 5d 15 bf 29 8d 11 bd
       0.006073181 0.26977932 -0.5834647 -0.03553501
000310 95 0a 19 bf 24 05 d5 3e d2 62 34 bf 1b de 22 bd
       -0.5978177 0.41605484 -0.7046329 -0.039762598
000320 41 1b f9 be 71 23 3c bd 94 b6 fd be 96 7b 3b 3e
       -0.48653606 -0.045932237 -0.4955336 0.18308863
000330 f0 42 85 3e 7d 68 30 3e 57 60 be bd ba 27 b2 be
       0.26027632 0.17227359 -0.09295719 -0.34795934
000340 bd 9c 6f bd b2 f7 86 3e f4 5c 2a bf 72 e7 74 bd
       -0.058499087 0.26360852 -0.66548085 -0.059791036
000350 82 1c 23 bf 61 11 f2 3e 51 c4 24 bf 4f fd 4c bd
       -0.63715374 0.47278884 -0.64362055 -0.05004626
000360 c2 08 23 bf b9 d6 52 bd ce 8b 1e bf e4 18 2a 3e
       -0.6368524 -0.051474307 -0.61932075 0.16611058
000370 69 3f 8b 3e 33 cf 43 3e 68 14 90 bd a5 c9 b9 be
       0.27196816 0.19122009 -0.07035142 -0.36286655
000380 7d 2c 3e bf 77 35 1a be fc 5a de bd 88 64 33 bf
       -0.74286634 -0.15059458 -0.10857198 -0.70075274
000390 e2 08 9c bd 72 d2 77 be a0 71 b4 bc 46 36 32 bf
       -0.07618882 -0.24201372 -0.022026837 -0.69614065
0003a0 17 70 99 bd 72 ce 40 bf cb c4 b0 bd 71 06 e0 be
       -0.074920826 -0.7531501 -0.08631285 -0.43754914
0003b0 ad 41 c5 be 23 29 c5 be 27 e7 02 3f 5c ff 64 3e
       -0.3852667 -0.38507947 0.5113396 0.22363037
0003c0 a4 9c 46 bf 72 f8 90 be f3 9b a8 bd 8e fe 81 bf
       -0.77582765 -0.2831455 -0.0823287 -1.0155809
0003d0 bf e1 b9 bd 41 4b 6a be e5 b8 14 bc 6a 1c 89 bf
       -0.09076261 -0.2288027 -0.009077285 -1.0711796
0003e0 e8 d4 96 bd f3 6d 81 bf c9 5b 85 bd d2 c9 02 bf
       -0.073648274 -1.0111679 -0.06511647 -0.51089203
0003f0 ba c2 86 be 52 d3 d8 be c9 7a 2b 3f c3 ba 50 3e
       -0.2632044 -0.42348725 0.6698423 0.20383744

dense2.bias f4 [16]
000000 55 23 b5 3d bd a5 2f 3e b5 7f 29 3e c2 59 2c 3e
       0.0884463 0.17153068 0.16552623 0.16831115
000010 81 14 43 3e 4f 85 37 3e 59 3a 2e 3e c9 be 0e 3e
       0.1905079 0.17921947 0.17014445 0.13939966
000020 ea c5 37 3e b6 4d 39 3e 0c ca 17 3e 1a b6 3d 3e
       0.17946592 0.1809605 0.14823169 0.18526497
000030 9c cf 38 3e 60 c2 2f 3e 3b 53 42 3e e5 aa 3c 3e
       0.18047947 0.17163992 0.18977062 0.18424566

dense3.weight f4 [1, 16]
000000 29 3d 76 be b8 1c 68 3e c0 fa 41 3e 86 e8 68 be
       -0.24046768 0.22667205 0.1894331 -0.2274495
000010 5b 7e 2b be 3d f8 4e 3e 2f 6b 51 3e 1f d0 89 be
       -0.1674742 0.20211883 0.20451044 -0.26916596
000020 01 f4 49 3e a4 2f 46 3e 4b 82 5a 3e 55 f4 4f 3e
       0.19721986 0.19354111 0.21338765 0.20308049
000030 f4 91 3b 3e 53 6e 49 3e 1e 8d 83 be 19 fd 3e be
       0.18317395 0.19670992 -0.256936 -0.18651237

369 f4 [2, 48]
000000 f4 67 cc 3d 73 3e 82 3e 89 df 01 3f ce cf af 3e
       0.09980765 0.2543827 0.5073171 0.3433823
000010 7d ab 06 3e 92 c9 a5 3f 9b 9a d0 3e 61 5c 21 3f
       0.13151355 1.2952139 0.40742955 0.63031584
000020 d9 76 a0 bd eb 2f e1 bd c8 68 e4 3d ea a7 a1 bd
       -0.078351684 -0.10995468 0.11152798 -0.07893355
000030 43 0a 19 3e 37 57 33 3f ad 1f 10 3d 34 4f 31 3f
       0.14945321 0.70054954 0.03518646 0.6926148
000040 5a 50 89 3d 15 4a 00 bf 73 43 de bd 57 24 d2 bd
       0.06704779 -0.5011304 -0.10852709 -0.102608375
000050 f5 b1 89 be 65 21 64 be 75 26 ff 3e fa 7c 4a be
       -0.26893583 -0.22278364 0.49834028 -0.19774237
000060 fe 94 a4 3e ba 30 1e bd 07 13 bf 3d a3 9e 55 3e
       0.32144922 -0.038620688 0.09329801 0.20861296
000070 f5 95 38 3f 57 3d a7 3f 88 a0 b4 3e 1f b4 fd 3e
       0.72103816 1.3065594 0.35278726 0.49551484
000080 cb 4f cd 3d ed b2 75 3e 88 08 83 3d 33 ab eb 3d
       0.10024985 0.23994036 0.063981116 0.11507263
000090 ba be 1c be 1b be 4d 3e 2a 53 e1 3c 0b 21 14 3f
       -0.15307131 0.2009205 0.027505476 0.5786292
0000a0 28 22 62 be 5e cb 04 be 19 6a c7 be 1b d2 cc 3d
       -0.22083342 -0.12968203 -0.38948134 0.10001012
0000b0 4d c8 98 be c6 37 0c 3e 94 d8 77 3e d9 63 59 3e
       -0.29840317 0.13693151 0.24203712 0.21229495
0000c0 a2 15 e3 3d a2 1d 9b be 63 1e da bc e7 31 1b 3f
       0.110881105 -0.30296046 -0.026625818 0.6062302
0000d0 f9 a0 a3 3e ef 5e a9 3f f5 33 8e be 2f 0b 8b 3e
       0.3195875 1.3232096 -0.27774015 0.2715697
0000e0 51 92 a8 be 49 c0 5d 3e e9 48 c2 3e 9d 67 ca be
       -0.3292413 0.21655382 0.3794625 -0.39532176
0000f0 f2 16 2e be 8d 84 cd 3e d6 3f d5 3d 07 38 e3 bc
       -0.1700094 0.4014019 0.10412566 -0.027736677
000100 d4 00 a4 be ab c9 fa 3d 7d 3c 56 3e 28 d9 08 3e
       -0.32031882 0.12245496 0.20921512 0.13364089
000110 e5 1d 92 3e 08 bf 82 3d da 06 16 be 94 56 74 be
       0.28538433 0.063840926 -0.14651051 -0.23861152
000120 e0 1b 7d 3e 84 87 11 3e ee ae d1 3e 4a 23 e8 3e
       0.24717665 0.14211851 0.40953773 0.45339423
000130 77 6f ba 3e f3 f5 9c 3f 2e 74 f4 bd 02 3a 57 3f
       0.36413166 1.2262558 -0.11936222 0.8407289
000140 13 eb 50 be 44 7b 3a 3e 32 ee cd 3e f7 7b 3c be
       -0.20402174 0.18211085 0.4022079 -0.18406664
000150 0c cc 24 3e 2b d4 19 3f 36 78 b7 bc 85 bd cb be
       0.16093463 0.6008937 -0.022396188 -0.3979303
000160 82 ce cf 3c 2e e9 50 bd a0 d7 1b 3f c1 8c b7 be
       0.025367025 -0.051003627 0.6087589 -0.35849574
000170 a9 ce 40 3d 4f d0 63 be 8b 2c cb 3e 9f 8e 04 bd
       0.047072086 -0.22247432 0.3968242 -0.032362577

370 f4 [2, 24, 16]
000000 b1 66 5d bc 7d 8e f0 3d d8 fb b2 be 8a 57 9c 3d
       -0.013513253 0.117459275 -0.34957767 0.07633884
000010 3a 72 0e bf b4 b7 8d bf 32 27 9a 3d be f3 41 3d
       -0.55643046 -1.1071687 0.07527007 0.04735159
000020 31 88 ee 3c 34 cf 13 3e df a2 78 be e5 39 a7 3d
       0.029117675 0.1443451 -0.2428088 0.081653394
000030 c7 ab a9 3d ae 0a e0 be 3d 7c bd be aa be d3 3d
       0.08284717 -0.43758148 -0.3700885 0.10339101
000040 5a 4f 2b be c9 96 e8 bd dd 0f 83 3d a1 62 b5 3d
       -0.16729489 -0.11356885 0.0639951 0.088567026
000050 0c 7c 28 be 36 f8 02 be 23 70 c2 bd 95 29 43 bc
       -0.1645357 -0.12789997 -0.09494045 -0.011911769
000060 0d d8 40 3d c0 f8 10 3e 95 fe f8 bc 80 21 e3 bc
       0.047081042 0.1415739 -0.030394832 -0.027725935
000070 9b cd 5e bd fd 47 e1 3d 6f 71 bf bd 75 c9 97 3d
       -0.0543953 0.11000059 -0.093478076 0.07411472
000080 c5 d5 63 bc 65 bc 32 be 89 e9 f7 be 60 60 d9 3b
       -0.013905947 -0.1745468 -0.4842036 0.0066338032
000090 35 07 83 bd 95 63 be be 3c 0c c3 be a7 0f fa be
       -0.06397859 -0.3718535 -0.38095272 -0.48840067
0000a0 8b 12 b2 bd b8 bb 12 3e 4b 17 1b be 61 0b 1c be
       -0.08694943 0.14329422 -0.15145604 -0.15238716
0000b0 6a bb f8 be 8f 7c e6 be bb 0c f6 3d e6 bc a7 3d
       -0.48580486 -0.45016906 0.12014147 0.081903264
0000c0 a5 38 07 3f 0a d0 07 3e a9 bf 0b bd 68 9f 85 3e
       0.5282081 0.13262954 -0.03411833 0.2609818
0000d0 21 e1 19 bf e9 a9 bc 3e bc 65 ca 3e cc 20 24 be
       -0.60109144 0.3684838 0.39530742 -0.16028136
0000e0 16 26 f4 3e f2 0b e0 3e 05 30 77 3e ac 7b 87 be
       0.47685307 0.43759114 0.24139412 -0.26461542
0000f0 1e 6c 08 be ac 81 83 bf af 71 b4 be 91 7d 12 bd
       -0.13322493 -1.0273948 -0.35242984 -0.03576428
000100 a4 29 60 3e a5 a6 08 3d e6 d7 36 3e 32 1f c7 3d
       0.21890885 0.03336205 0.17855796 0.09722747
000110 da 41 99 be c2 d7 18 3e c0 b1 a5 3e ec 64 2b 3e
       -0.29933053 0.14926055 0.32362175 0.16737717
000120 f1 2b f8 be 8e 35 b9 bc be f6 8d bc 0f ea b2 3e
       -0.48471025 -0.022608545 -0.01732957 0.34944198
000130 e6 d0 d8 3e e5 37 c7 be 35 7d b7 3e dd 0b 16 3e
       0.42346877 -0.38909832 0.35837713 0.14652963
000140 bc 42 62 3e 85 42 e0 3e 52 8a 83 3d dd 22 59 3f
       0.2209577 0.4380075 0.06422867 0.8481882
000150 f1 83 17 be 4f 82 dc 3d 63 16 92 3e fb 6e 2b 3e
       -0.14796425 0.10767042 0.28532705 0.16741554
000160 8a e9 7a 3d 75 ab 00 3f 2a a3 6e 3e 21 ea f7 3e
       0.061257876 0.5026162 0.2330443 0.48420814
000170 f6 b7 5c 3e 66 8f 0a bf 31 69 53 be f6 e1 7f 3f
       0.2155455 -0.5412506 -0.20645596 0.99954164
000180 c5 94 7f 3e 45 9d 29 3e eb 57 ac be dc 40 36 3d
       0.24959095 0.165639 -0.33660826 0.04449545
000190 ce d8 06 be 64 22 3c bd 2c 03 16 be 5c d7 e9 bc
       -0.13168642 -0.045931235 -0.14649647 -0.028545074
0001a0 8d 86 d4 3b d7 dd e3 be 27 83 98 3d 10 33 90 3d
       0.0064857663 -0.44505188 0.0744689 0.070409894
0001b0 d0 81 a2 bb 22 b2 ec bd ba 8a 44 3e 9f 67 5e bd
       -0.0049593225 -0.11557414 0.19193545 -0.05429804
0001c0 5a 83 f2 3d c3 78 ea 3c f1 63 fa be 48 47 af 3d
       0.118414596 0.028622037 -0.48904374 0.08558518
0001d0 eb d6 dc be 92 ba b8 be 1e 81 b3 bd d7 0f 74 bf
       -0.4313272 -0.36079842 -0.087648615 -0.9533667
0001e0 0e 1b 10 3d c4 3b 94 bd 73 3f f1 3e 19 4b d9 bb
       0.03518205 -0.07237962 0.4711872 -0.006631267
0001f0 eb b1 12 bf 95 eb 87 be e4 82 38 bf 3f df fc be
       -0.5730273 -0.26546922 -0.72074723 -0.49389073
000200 d0 9a 1d 3c 55 85 30 3e 0e 13 a3 bf a9 b2 a8 3e
       0.00961943 0.17238362 -1.274019 0.32948807
000210 32 51 8f bd 05 18 2a bf b6 0d 0f 3f ec 04 7a be
       -0.06997909 -0.664429 0.55880296 -0.2441594
000220 81 31 f4 3e be 03 74 3f 05 f9 3f be 51 28 b0 be
       0.47694018 0.9531821 -0.18747337 -0.3440576
000230 7c 91 47 bd 8f 7a fb bf 62 9d 55 3d fa fe 8b 3e
       -0.04872273 -1.9646777 0.052152045 0.2734297
000240 9b 2d dd 3e 3b 4b 20 3f 0d 7b 82 bf ec 98 c4 3e
       0.43198857 0.6261479 -1.0193802 0.3839792
000250 14 94 50 bd 62 70 37 bf d0 eb 0c 3f dd 32 64 be
       -0.05092247 -0.7165586 0.5504732 -0.22285028
000260 85 71 87 be 8f 4d 4f 3f 02 83 ad bd 78 40 59 be
       -0.26453796 0.8097772 -0.084722534 -0.21215999
000270 28 b2 f8 3e a8 a9 af 3e 91 54 65 be a1 17 c2 3e
       0.48573422 0.34309125 -0.22395541 0.37908652
000280 fc 85 4a be be d7 be 3d a4 1b 00 3f e8 00 a4 be
       -0.19777673 0.09318493 0.50042176 -0.3203194
000290 7d b5 56 3e db 31 8d 3f c5 94 8b bb a7 3c fe 3d
       0.2096767 1.103084 -0.004259678 0.12413912
0002a0 30 02 e1 3e f2 f8 ba 3e f5 e8 2a bf 0b 5a a4 bd
       0.4394698 0.36518055 -0.66761714 -0.08024987
0002b0 6b 73 0a 3d e1 cb ce 3d 26 01 59 3f 2c b8 11 3e
       0.033801477 0.100974806 0.8476738 0.14230412
0002c0 5e 19 8b 3e f7 dc f0 3e 1b d7 76 be 96 9b 55 3f
       0.2716779 0.47043583 -0.24105494 0.8344053
0002d0 e0 97 52 3f 5c 3f 9a be 81 84 19 3f 6d a5 b5 be
       0.8226299 -0.30126464 0.5996781 -0.35477772
0002e0 6c ba 49 3f c9 c7 87 3e 42 d6 97 3c 95 7b 8d be
       0.7880008 0.2651961 0.018534783 -0.27633348
0002f0 ca 34 24 3e 1f 78 2a 3f 69 bf 89 be 6f c0 cb 3e
       0.16035762 0.6658954 -0.26903847 0.39795253
000300 3f b3 ac 3e 0f b3 6e be 5b ca 9c 3e 19 c3 f0 3e
       0.33730504 -0.23310493 0.30623135 0.47023848
000310 29 e2 84 be 34 31 0c bd eb 3f 2e 3e fe 14 44 3e
       -0.25953797 -0.03422661 0.1701657 0.19148633
000320 63 1c 2f 3f ba e3 aa 3e a0 3c a4 be 37 1f 07 be
       0.6840269 0.33376867 -0.32077503 -0.13195501
000330 14 97 92 bd 98 bd df 3e d3 dd 5e be ed 5e 23 be
       -0.07157722 0.43699336 -0.21764307 -0.1595418
000340 42 7a 95 bd 5f 4c af 3e ba 5b 94 bd 74 a6 15 be
       -0.072987095 0.34237954 -0.07244058 -0.14614278
000350 d7 64 0c bf 1b 6a 10 3f 16 f7 e0 3d de ef dc 3e
       -0.5484137 0.56411904 0.10984628 0.43151754
000360 c6 0a 9b 3e 26 ac 4b 3e cf 21 ad 3e b3 aa ba bd
       0.30281657 0.19889888 0.33814856 -0.091145895
000370 c6 eb 0c 3f 1d 99 ba be 99 17 46 3e 50 7f c1 bb
       0.5504726 -0.3644494 0.1934494 -0.0059050694
000380 05 3e 51 be af 5f e6 3e 37 2a 0e bc b9 b0 57 3d
       -0.20433815 0.44994876 -0.008677057 0.05265877
000390 bd bf e5 3d 4c 49 29 3e 86 7a 2c be e7 7f b4 be
       0.11218212 0.16531867 -0.16843614 -0.35253832
0003a0 b4 fe c6 3e a6 fc 80 3f ef 42 78 be ee db d3 bd
       0.38866198 1.0077102 -0.24244283 -0.10344683
0003b0 7e 49 9c 3e c8 a4 82 bd c0 af ee bd 8b 2a 0e 3e
       0.3052482 -0.06379086 -0.116546154 0.13883416
0003c0 3a 96 0a 3e e0 67 8e 3e 65 40 0f 3f 73 6e 48 bc
       0.1353387 0.27813625 0.55957633 -0.012233364
0003d0 0f bc 73 be de 51 6e 3f ac d2 35 be bf 46 bb 3e
       -0.23802207 0.9309367 -0.17756146 0.36577412
0003e0 3c b5 e6 3e 27 a7 69 3d 86 64 2a be bd 48 a4 3a
       0.45060146 0.057044175 -0.16639909 0.0012533885
0003f0 7b 32 96 3e 11 03 e1 3a ff 59 3f 3d e6 02 8f 3e
       0.2933539 0.0017167052 0.046716686 0.279319
