PLCMOS/models/plcmos_v1_intrusive.onnx (onnx, 279978 bytes, 19 tensors)

in_block.conv1.weight f4 [32, 1, 3, 3]
00000000: 7d45 c7be b73c 1f3e 39ed ba3e e1c8 9ebe
00000010: 6fca c03e 2fee cb3d 8a6b 63bd 0725 11be
00000020: a584 48bd 665b e93e e981 34be 7e83 f5bd
00000030: 87e8 d73e ca13 5b3e 2fa7 5a3e 84c4 97be
00000040: dcb8 a9be c2b9 9fbe 6293 ce3e 6f6a e5bb
00000050: 4da0 e83e a40b ecbc 4743 32be 92bb a2be
00000060: 9a8c bebd a780 36be d2c7 07be da0b 8ebe
00000070: 035d 0dbc 7d5b bc3d 922a 583e 0bf7 023f
00000080: e530 33be eee2 923e 4a81 1cbb 36c8 c0be
00000090: e3e8 fb3b c07a acbe db53 e43c 4df9 75be
000000a0: fd6f 88be bd18 90be 753b e83e 232a 4c3f
000000b0: 5d46 2f3d 37f3 e93e 8232 a63e ee68 e63e
000000c0: 0d8b 19be fd65 85bd 032c 5d3d 155c bfbe
000000d0: e84b 56be 79e1 9dbe b0ca 133e c8f8 9ebe
000000e0: 48b3 10be a9bb c93d 5e73 58be 5004 9cbc
000000f0: ef5c 013d 8dfc 30be 2406 8c3d f11f 093c
00000100: 54da 963e 24c7 26be ac41 6abe 8acd ae3d
00000110: f204 503e f4d8 19be 6753 dbbd 383f 5ebe
00000120: 1cce dbbd 1889 51be 3852 aabe 59d8 a5be
00000130: 3d9d c63e 9078 07be bfa1 a13e 00f9 1abe
00000140: e8a4 143f 648d 94be 9ca9 28bb 316e 393e
00000150: a958 9bbe 473c 823e db1c 12be 9fb0 063e
00000160: b499 b0be 454d d53b 2ef8 50be 2591 4a3e
00000170: 4428 013f e16c abbe 8829 2abe ce8d 293f
00000180: 3ffa 9cbe 0252 55be f063 2ebe 6e2a 8dbd
00000190: bd0a 223e b093 233d 4260 babe 7bcd 173a
000001a0: 8238 6f3e 690a 2cbe f67b 183e 31df ba3e
000001b0: 8850 94be 3afc 533e ca47 a1bd 8775 b8bd
000001c0: fc4a f4be df5d fabd 45a4 dc3e 6144 df3e
000001d0: f011 a93c a8ba 1fbe 36e5 24be b48e 91be
000001e0: c00d 53bd 1bc8 893d 56af 123e 928a 503e
000001f0: b79c 2fbe 5ee4 f13b 96b7 f93e 6764 8dbe
00000200: 1739 5dbe 5812 453e c7f0 aa3e 1f72 53be
00000210: fe88 a0be 394c bf3b 8b3b 9fbe c926 183e
00000220: 671a 593c 1a7b 1bbe 4514 cbbe f3a2 493d
00000230: 3b35 343f 4bdb 4abe d098 07bd 902d 89bd
00000240: 6657 a93e 7126 343f b6e7 8bbd 1989 4ebd
00000250: d81a 46be 8311 a8bd dd5d 9dbe 8d6b acbe
00000260: 2832 203d ca7b e3be 41f1 0a3e 460c c93e
00000270: 8a4d 91be 2882 263e f264 eb3e 71ec b23d
00000280: 460d 7dbc 58c6 a3be 540d ae3e 7c70 22be
00000290: b673 52be f47b 573e 3ed8 9cbd 48b9 c9bd
000002a0: 4170 d63e 9507 72be 9c20 58be 5744 043d
000002b0: 3395 af3d 3daa a7bd 74fc 95be dee5 abbe
000002c0: ef0f 82be 66df 8d3e 638f 133f bc70 083e
000002d0: 0552 fb3d 946e bc3e d1ef d93e fefe 1abe
000002e0: 8907 45be 2bd5 6abd f97e 1ebe ed15 ed3c
000002f0: e05b acbd 17ad 71be 5ae4 03be b685 10be
00000300: fc23 bb3e 14a0 023f d212 37be 4bb8 033e
00000310: e71a 2dbc 2f2c 9bbe d996 5cbe 2ab0 013e
00000320: ceeb 32be 8fbc 5b3e 754a b73e c8eb 99be
00000330: a28f 863e 4246 943e cb1e cfbe d924 95be
00000340: 2b81 153e a69d 56be a489 1bbe f859 483e
00000350: a4b4 22bd b8a3 9d3e 2559 0c3f 1549 dcbd
00000360: 8bff 10be c19d 75be 8fd2 0dbe b8ab f7bd
00000370: d606 753d 3508 873e 1ed4 5fba 3b58 1c3e
00000380: 81ad 8f3e 180f 863d 68ea 8a3d 87e9 03bd
00000390: c333 763e 4768 903b b752 173e e7b2 753c
000003a0: 9100 15bd 1873 e7bc cd02 18be f507 8c3d
000003b0: bbbc 0b3e e272 cebb 1cf6 fbbc b861 99bd
000003c0: 2d09 7db9 f9ec c63d 46c8 89be dc16 003f
000003d0: 5a1b bbbe bf39 813e 09f8 b23d 6b2a d0be
000003e0: ba81 833e 3f28 54bd 00fc 61be d65c 833c
000003f0: 604e a93e 8c22 9dbe d47e e13d e640 09be
-0.38920203 0.15550505 0.36509112 -0.31012633 0.37654445 0.09957539 -0.05552248 -0.14174281
-0.048954625 0.45577544 -0.17627682 -0.11987971 0.42169592 0.21394268 0.21352838 -0.29642117
-0.3314885 -0.3119641 0.4034682 -0.0070012133 0.454348 -0.028814144 -0.17408477 -0.3178373
-0.09304161 -0.17822514 -0.13259819 -0.27743417 -0.008628133 0.091971375 0.2110999 0.5115821
-0.1749912 0.2868876 -0.0023880773 -0.3765275 0.0076876744 -0.336874 0.027872017 -0.24020882
-0.2664794 -0.28143874 0.45357862 0.79751796 0.042791713 0.4569337 0.3246041 0.4500193
-0.1499445 -0.06513593 0.05399705 -0.3737494 -0.20927393 -0.30836084 0.14432788 -0.3104918
-0.1413089 0.098502465 -0.21137759 -0.019045025 0.03158277 -0.1728384 0.06837109 0.008369432
0.29463446 -0.16286904 -0.22876614 0.08535297 0.20314386 -0.15024167 -0.10709267 -0.21703804
-0.107326716 -0.20462453 -0.33265853 -0.32391623 0.38791838 -0.13229585 0.31568715 -0.15134048
0.58064127 -0.29014122 -0.002573586 0.18108441 -0.3034108 0.25436613 -0.1426882 0.13153313
-0.34492266 0.0065094554 -0.20407173 0.1978193 0.50452065 -0.33481506 -0.16617405 0.66232
-0.30659673 -0.20832065 -0.1703031 -0.068928584 0.15824409 0.039935768 -0.36401564 0.0005790812
0.233614 -0.16800846 0.14891037 0.36498407 -0.2896769 0.20701686 -0.07875021 -0.090067916
-0.4771346 -0.12224936 0.43094078 0.43606856 0.020638436 -0.15598547 -0.16103062 -0.28429186
-0.051526785 0.0672762 0.14324698 0.2036536 -0.17149626 0.00738196 0.48772877 -0.27615663
-0.2160381 0.19245279 0.33386824 -0.20649002 -0.31354517 0.005837944 -0.31100115 0.14858545
0.013250924 -0.15183678 -0.39663902 0.049227666 0.70393723 -0.19810216 -0.033104718 -0.066981435
0.33074492 0.70371157 -0.06831305 -0.050423715 -0.19346178 -0.08206465 -0.30735675 -0.33675805
0.039110333 -0.4443038 0.13568594 0.39267176 -0.2837947 0.16260588 0.45975453 0.08736504
-0.015445059 -0.31987262 0.33994544 -0.15863222 -0.20551953 0.21043378 -0.076584324 -0.09849793
0.41882518 -0.23635705 -0.2110619 0.032291736 0.08573379 -0.08186767 -0.2929417 -0.33573812
-0.2540278 0.27709502 0.57640666 0.13324255 0.12271503 0.36803114 0.42565778 -0.15136334
-0.19241156 -0.0573322 -0.15478124 0.02894112 -0.08415961 -0.23601185 -0.12880078 -0.14113507
0.3655089 0.5102551 -0.17878273 0.12863271 -0.010565496 -0.30307147 -0.21541919 0.12664858
-0.17472765 0.21458648 0.35798994 -0.300627 0.26281458 0.28959852 -0.4045318 -0.29129675
0.14600055 -0.20958576 -0.15189224 0.1956557 -0.039723054 0.3078897 0.54823524 -0.10756127
-0.14159982 -0.2398596 -0.13849853 -0.120932996 0.059820972 0.2637345 -0.0008538383 0.15268032
0.2806206 0.06545848 0.06782991 -0.03220513 0.24043183 0.004406962 0.14777647 0.014996267
-0.036377493 -0.028253123 -0.14844818 0.06837455 0.13646214 -0.006300316 -0.030757003 -0.074893415
-0.00024131378 0.09713168 -0.2691061 0.5003488 -0.36544305 0.2523937 0.08738715 -0.40657362
0.2568491 -0.051796194 -0.22068787 0.016035479 0.33067608 -0.3069042 0.11010519 -0.13403663

in_block.conv1.bias f4 [32]
00000000: 3031 82bd c572 41be b9e3 67bd 5a5b 7bbd
00000010: 8a9b b5bd bda0 cabd 0346 68be 134e 7dbe
00000020: ee7f 13bd 3139 e1be acf4 54be 5170 6ebe
00000030: 1fdb 53bd 3b37 31be 9599 4cbe 7692 5ebd
00000040: eb2b 51bd 73b8 12be d24c 79bd a922 cebc
00000050: c80f 32bd 6280 8ebd 3c43 08be ddd2 79bd
00000060: 299d 18ba f2c9 873c a822 7abd fd28 a6bd
00000070: 479b d3bd 330f 39bd fb2f 4abc 08b5 83bd
-0.06357038 -0.18891437 -0.056613658 -0.061366417 -0.08867557 -0.0989394 -0.22682957 -0.24736814
-0.036010675 -0.43988946 -0.2079646 -0.23285033 -0.051722642 -0.17306225 -0.19980462 -0.054338895
-0.051067274 -0.14328174 -0.060864277 -0.025163012 -0.04347208 -0.06958081 -0.13306898 -0.06099211
-0.00058217585 0.016575787 -0.061068207 -0.08113287 -0.10332351 -0.04518051 -0.012340541 -0.06431013

in_block.conv2.weight f4 [64, 32, 3, 3]
00000000: 4f97 c0be d91d 78be 2497 e93a 164f f8be
00000010: 043e a5be 9edc fa3d 5d8a 4bbf 0cd4 18bf
00000020: 8006 36ba 959e cfbd c7bb 3e3c e238 cabb
00000030: 411d 5f3d 7a24 663d 109e 223e e5dc 67bd
00000040: ee82 033d e2b1 11bd c097 04bd a21a beba
00000050: 15f8 203e 9fab 97bc 78be 043d 75c4 14bd
00000060: 149b 883c b735 3dbd 1e01 25bd d054 8e3d
00000070: 11ef f7bc 6a2e 83be 9c08 42bd 86b0 ffbd
00000080: a07c 33be ad78 1b3d 1706 cebd 79ef 02be
00000090: 4879 d43d 71d1 afbd 9292 85bd 7911 cfbd
000000a0: 1363 19be 7f86 f0be 8e16 73bc b57e 9a3d
000000b0: 2d14 b83d 8318 4cbe 9ed5 493d 4c8b e63d
000000c0: 169c 1f3d 78a1 07be 4338 a53d 04d3 a5bd
000000d0: f257 74be 5a76 d3be e4df 44be 1039 9abd
000000e0: 9bd6 a7bd c340 15be 4709 e6bd 5995 9bbd
000000f0: b25b debd 2a33 2ebc 6f88 62bd 1a3f 313c
00000100: 0200 09bd 2be4 873c c0c0 153e 42d3 ea3d
00000110: 0619 7a3d d249 a1bd 2fc1 ddbb 8c56 2abe
00000120: 84ed efbd c3d8 12be 7e51 20bb be0e f0bb
00000130: c6e9 8fbe 0d9e 053d efaf fcbc c0b8 17be
00000140: 94c9 76bd b96d 3ebd 5957 84bd 9b7c 4abd
00000150: 63a4 f83d f8b4 5c3d 0d80 6d3d cc93 f8bb
00000160: b9b9 9a3d 9768 2a3e 9fa1 1fbe 49fe 36be
00000170: e217 da3d 794d a8be 11e0 41be 6ec6 143e
00000180: 5645 d1be 81ab 93be 08dc 3c3e 05df cfbb
00000190: 2cca 6d3d 9802 a0bc ca23 3b3d 975c a6bd
000001a0: 4620 eb3d cfdd 2abc 04fe 26b9 58eb c73d
000001b0: 4506 adbd 2f7f 263d 3a74 eabd f6df 00be
000001c0: 666a c7bd b2b2 8abe 2556 1b3d 904b 07bd
000001d0: 4ceb eebd 48b6 1ebe 4b9f 49bd 1764 9abd
000001e0: d297 b5bd 79ba d23c a7fc dcbc 6c31 e6bd
000001f0: e844 17bd 80be 51bd 6fcc 4cbe 8e49 d8bd
00000200: 7309 a7bc 41e8 13be 484a 973d 8f03 943b
00000210: 4fd3 33be 63e9 613c 2bd5 e8bd f91b 10bf
00000220: 7cd1 b0be 0164 cb3d 70fc 4cbf 8b7f c9be
00000230: f86b b13d 702f 77bf 0b4a c3be e8eb eb3c
00000240: 4eb2 053d 833a e1bb 9a24 cabc 8180 09bd
00000250: 8473 adbd 994b 30be deb4 acbe 5c39 86be
00000260: fafd cfbe ffec 8dbe 2d8f 74be 6342 bfbd
00000270: 5942 90be 819d 3ebe 1e74 7d3c 2bdf 59be
00000280: be37 50be c4f8 a8ba 1eb7 c73c 5e5d a0bd
00000290: f286 28be e2c2 023e 9bab 8abd 9900 6fbe
000002a0: 8116 123e 20bf c6bd 1f48 6ebe 9f98 773d
000002b0: 0d9e 4dbd a054 acbd 5a4d b4bd 4e8d 30be
000002c0: 8235 3abe b3a2 d23b f051 c03d d9df 88bd
000002d0: d2a5 99bd 50f7 c3bc 7527 cf3c f7fe 163d
000002e0: c7f2 c0bd a3d3 903d 422f 2dbd 0cb8 dfbd
000002f0: a264 d1bd deb4 26bd b186 f1bd 9528 01be
00000300: 3408 b6bd 5a59 e63d 3d02 dabd 28cd 08be
00000310: c29d 6cbd 55b6 32be b516 e2bd 8ccb d83c
00000320: c799 9bbe 43a5 edbd d2ef 033e 33b4 62be
00000330: ec27 b13d ad6c 363d f330 42be 69cd 3d3e
00000340: 525e 88bd c9fb 09bd 5e3e 0d3e 4347 91bd
00000350: c755 09be eced c83d 704d 013d 8f9c 6dbb
00000360: 36e5 53bc a8e5 54be 53c5 73bd 81f9 1cbe
00000370: f401 25be a4a4 8bbd 4050 28be 2e35 3abe
00000380: 4073 fdbd f557 083e db3a 2dbe 68f3 3bbe
00000390: 0a1b b43d 7143 d1bd 84a9 19be b856 b83d
000003a0: d2ef 3ebe 7644 b4bd c4b2 25be c7bf 81bd
000003b0: d760 843d 28a6 54be 8195 18bc 7006 a1bc
000003c0: d502 51bc dc6b 153c 4206 08bd 7c5f d7bb
000003d0: 5da3 cdbc a023 dbbd d675 b73d 03f1 04bd
000003e0: 4bd4 e2bd 5d9b af3d a533 17be d030 ffbd
000003f0: 7980 34bf 7aba 8fbe 0c91 3abe ec4f 27bf
-0.3761544 -0.24230136 0.0017821533 -0.48497838 -0.32273877 0.12249111 -0.79508 -0.5969856
-0.00069437176 -0.10137669 0.011641449 -0.0061713317 0.054471258 0.05618713 0.15880609 -0.056607146
0.032107286 -0.035570033 -0.032371283 -0.0014503787 0.15719636 -0.018514453 0.032408208 -0.03632017
0.01667551 -0.046193805 -0.04028427 0.069497705 -0.030265363 -0.2562135 -0.04737149 -0.12484841
-0.1752801 0.037956882 -0.10059755 -0.12786664 0.10374695 -0.0858487 -0.06522097 -0.101107545
-0.149792 -0.46977612 -0.01483692 0.07543699 0.08988223 -0.19931225 0.049275987 0.112570375
0.038967215 -0.13245189 0.08067372 -0.08096889 -0.23861673 -0.41301233 -0.19226032 -0.07530415
-0.081952296 -0.14575486 -0.11232238 -0.07596845 -0.10857333 -0.010632316 -0.055305894 0.010818267
-0.033447273 0.016588291 0.1462431 0.114660755 0.06105902 -0.07875408 -0.006767414 -0.16634578
-0.117152244 -0.143405 -0.0024462636 -0.007325976 -0.28108042 0.032621432 -0.03084561 -0.1481657
-0.060250834 -0.04649136 -0.06461973 -0.04943524 0.12140729 0.053883523 0.057983447 -0.007585978
0.07554955 0.1664146 -0.15588997 -0.1787044 0.106490865 -0.32871607 -0.18933131 0.1452882
-0.40873212 -0.28841785 0.1844331 -0.0063437247 0.058054134 -0.019532487 0.045688428 -0.08123129
0.11480765 -0.01042886 -0.00015925622 0.09761685 -0.084484614 0.040648635 -0.1144795 -0.12585434
-0.09737091 -0.2708946 0.03792395 -0.033031046 -0.11665973 -0.15499222 -0.04922418 -0.07538622
-0.08866848 0.025723683 -0.026975943 -0.11239895 -0.03693095 -0.051207066 -0.1999986 -0.105609044
-0.020390248 -0.14444067 0.07387215 0.004517026 -0.17561077 0.013788554 -0.113687836 -0.5629268
-0.34534824 0.099311836 -0.8007269 -0.3935512 0.086631715 -0.9655676 -0.38142428 0.028799012
0.032640748 -0.00687343 -0.024675656 -0.033569816 -0.084692985 -0.17216338 -0.3373174 -0.26215637
-0.40623456 -0.27719876 -0.23882742 -0.09338834 -0.2817562 -0.1861477 0.015469579 -0.21276538
-0.20333764 -0.0012891521 0.02437931 -0.078303084 -0.16457728 0.12769654 -0.067710124 -0.23340072
0.14266397 -0.09704423 -0.232697 0.060448285 -0.050199557 -0.084145784 -0.08803816 -0.17241403
-0.18184474 0.0064280867 0.09390628 -0.066833206 -0.07502331 -0.023921639 0.02528737 0.036864247
-0.09421306 0.070716165 -0.042281397 -0.10923776 -0.10224272 -0.040699832 -0.117932685 -0.12613137
-0.08888283 0.11247511 -0.10644958 -0.13359511 -0.057767637 -0.17452367 -0.11039487 0.026464246
-0.3039076 -0.11603787 0.12884453 -0.22139053 0.086501926 0.044537235 -0.18963985 0.18535389
-0.06658615 -0.033687387 0.13793322 -0.0709367 -0.13411628 0.09811005 0.03156799 -0.0036256646
-0.012933066 -0.20790732 -0.059514355 -0.15329553 -0.16114026 -0.06818512 -0.16436863 -0.18184349
-0.12375498 0.13314803 -0.16916983 -0.18354571 0.0879422 -0.102179416 -0.15006071 0.09000915
-0.18646172 -0.088021204 -0.16181475 -0.06335407 0.06463783 -0.20766509 -0.009312988 -0.01965639
-0.012757023 0.009119954 -0.033209093 -0.006572662 -0.025102312 -0.10700154 0.08958022 -0.03245641
-0.11075648 0.08574555 -0.14765795 -0.12460482 -0.70508534 -0.28071958 -0.18219393 -0.65356326

in_block.conv2.bias f4 [64]
00000000: 97fc 66be fd76 efbc ddc6 90be b93e ae3c
00000010: c075 e2bc b946 aebd b1b2 48bd ffb2 61bd
00000020: 185c 39be 982b 92be 9105 5dbe 3202 89bd
00000030: fc96 53bd c5e3 9bbd 919a 90be 89cb 113a
00000040: 3c63 b2bd c326 10bc 5bf0 3ebe 69f7 15be
00000050: d229 08be f31b 0ebd 26ef 9fbd b8ed 82be
00000060: f9b9 23be 5561 c8bd 2abd 53bc 73d6 0cbe
00000070: abe6 cf3b f27b 24be 48ca e2bc 128c 3bbe
00000080: 9411 43be 0085 e5bd 62d0 85bd 2d66 2dbe
00000090: 5436 08be 8161 e0bc c38e d0bc 0ac7 82bd
000000a0: 0e85 d4bd 80ea dc3b 7c69 11bd 7d1d 97be
000000b0: 03aa 483d 513d 19be 6304 a3bd d5ad fbbd
000000c0: 0b3f 3abe 95de 26be 53fb 41be 181e e3bd
000000d0: e7a6 41be 3589 85bd b913 09be 974f 8fbd
000000e0: d7c9 1fbd ded4 92be 55e2 08be 51ad 59be
000000f0: 8fed 9cbe c544 633b d92b 9fbd 0d73 eebd
-0.22557293 -0.029231543 -0.2827672 0.021270143 -0.027644038 -0.08509583 -0.04899854 -0.055102345
-0.18101537 -0.28548884 -0.21584155 -0.06689872 -0.05165766 -0.07611803 -0.28242925 0.000556164
-0.08710334 -0.008798304 -0.18646376 -0.1464516 -0.13297203 -0.034694623 -0.07809286 -0.2557199
-0.15988912 -0.097841896 -0.012923518 -0.13753681 0.0063446364 -0.16062906 -0.027684346 -0.18315151
-0.19049674 -0.11207008 -0.065338865 -0.16933508 -0.13301975 -0.027390243 -0.0254587 -0.0638562
-0.10376941 0.0067418218 -0.03550099 -0.29514685 0.04899026 -0.14964797 -0.07959821 -0.12289015
-0.18188111 -0.16295846 -0.18943529 -0.11089724 -0.18911324 -0.06520311 -0.1338643 -0.069976024
-0.03901085 -0.2867803 -0.13367589 -0.21257521 -0.30649993 0.003467844 -0.07772035 -0.11643038

in_block.conv3.weight f4 [64, 64, 3, 3]
00000000: 2e7d 9f3e a965 d73d 2356 983d b886 513e
00000010: 4221 56bb 62c5 183e 3071 353e ce42 1fbd
00000020: bc5a d93c 5d87 31be e59d 37bd 87ea cebd
00000030: 0901 9ebd c747 283e 379d 303d 6883 3bbe
00000040: 46d1 2abe 9250 c2bd 44ef 3a3e 1df3 05be
00000050: a4fc 723e edc7 f33d 1639 febc dcae 7cbd
00000060: a963 1f3e e7d2 e3bd 95f8 9ebd ead4 bb3c
00000070: 3924 6ebd 21d2 f1bd 35fb b1bd 2715 16be
00000080: d89f 9cbd 650f 333d f6b4 b23d ea02 0d3d
00000090: a19d 0cbe e1e8 1cbf f1fd 693e 97c1 ee3c
000000a0: 87bc 44bd 7c42 cd3d 449b a13c 184c 0c3d
000000b0: afbb 543d ed2e a53c 3264 64bd eee0 d2bd
000000c0: 8ce3 f1bd 6d5a 9dbe 02b1 4a3e 450d c9bc
000000d0: 9240 b5bd a983 be3d 1b65 3dbc 281d bb3d
000000e0: c2b7 823e 74f6 41be 3cec 03be 95de b0bd
000000f0: 575b 60bd 61dd d3bd 17e2 46bc c840 533e
00000100: 63c5 c63d 237d debd 6885 3e3e c084 5f3e
00000110: be34 b63d 8482 273e 185f 4fbe 8f31 2abd
00000120: dfcf c9bd 50d3 cabe cf7f b0be 1732 863b
00000130: 85cc 30be dc54 62be c873 463b 3216 7f3b
00000140: 878a 0f3d 7897 51be 42ce 91be 4c95 163e
00000150: 0dc3 39bd 2d96 99be 723c 0abb 3817 ac3d
00000160: 2e49 01be 1cdd 06bd ec77 cabc ab44 3fbe
00000170: 21b3 783e 7a9b 543c f52f c1bd b886 243d
00000180: 4697 7f3d de76 8dbe 6486 8cbe 299a 923d
00000190: fa45 6cbe e404 e1bd 84c4 2ebd 3e97 8dbe
000001a0: 9ece 43be 8374 623c 0e95 dd3d 212d 613d
000001b0: 5d80 2d3c 73ba 993d 95b0 c6bc 3d5a 3f3e
000001c0: 1521 903e 1369 c93d 2a07 29be cf42 d7bd
000001d0: b290 19bd f5cb 29be 29a0 4dbe c91f c8bc
000001e0: 7e41 afbd 1cb6 e63c f45c 7e3d d9c7 2bbe
000001f0: f455 93be eaf3 0fbe 3406 043d 5756 a7be
00000200: e7ba a2bd d138 3e3d 2fca 78be 7ee9 2c3d
00000210: 011e 4b3e 428e adbb 4ab1 1a3d c4e8 ecbd
00000220: b891 e83c bd3f efbc 9447 aebd e0ef d3bd
00000230: 204b 3bbe 9092 79bd 0c76 91be 8754 17be
00000240: 47c1 7f3d 3e65 68bd 9cea 82bd 8a8c db3d
00000250: b2fa d5bb 0c88 0d3e 5240 cf3d 0d94 1b3e
00000260: 5df8 6e3e e798 ddbd 4e59 0fbc c811 36be
00000270: a7a8 643e cc8e 103e b830 de3b 2412 8dbe
00000280: 52ee 0cbe f6f2 31be 0ece eabc f563 85bd
00000290: 4354 75bd 2226 62bc 99b5 a5bd 59d6 8cbd
000002a0: 9915 35bd 7401 653d a0d6 803d 4729 a1bd
000002b0: d5c1 02bb caaa bb3d be32 e33c d754 0d3e
000002c0: c424 e0bc d44d 61be bdc9 b23d adf0 9ebe
000002d0: d242 48be 0dce f6bc 6372 353d 2032 a9be
000002e0: af55 c3bd 7359 af3d 1c16 073c df16 723e
000002f0: 5615 3e3e 44ca d13d dd72 6a3d 5938 383d
00000300: 9578 433e 120b d73d bcc6 e23d b429 623d
00000310: 3f8f 85be f528 09be 9b72 0cbe d480 02be
00000320: e96c 16be 6c30 09be 3993 98be 532e 30be
00000330: fe99 86bb 4a08 f4bc c03e 493d c139 0e3e
00000340: dfae 6fbe edd5 af3d 18fc f43c 8ba0 59bd
00000350: 9d88 4fbd 0824 2fbe bafc aebd 48c8 90bd
00000360: 06c7 8dbc d72e 87bd 7c4c b93d 8e6f 1bbd
00000370: 6579 863d 4fee 923b c14d 6abe 4b50 08be
00000380: 1b20 28bd a8c2 05be f0b9 943d 062b 863e
00000390: c685 93bc 0323 c4be b6bb cebd 4c87 92bd
000003a0: 0f99 d63d d54a 993d 4b91 983b 8dec 85bd
000003b0: 57a6 083d 6580 b03d 4476 b93c 7d9d a5bc
000003c0: 32b5 a1bd 6c8a b6ba 42de 22bd f642 943d
000003d0: 9f13 68bd d518 62bd 225c 39bd 5e40 1ebd
000003e0: e45b 2f3c a81b 25bd 6959 ab3d e1aa fd3d
000003f0: 6dd1 aabc 533e 19be 88f5 bebd 5952 563b
0.31150192 0.10517437 0.07438304 0.20461547 -0.0032673632 0.14919046 0.17718959 -0.03888207
0.026532523 -0.17336793 -0.044828314 -0.10103326 -0.07715041 0.16433631 0.04311868 -0.18311846
-0.16681394 -0.09488024 0.18255335 -0.13081022 0.23729187 0.11903367 -0.03103308 -0.061690196
0.15565361 -0.11124211 -0.07762257 0.022928674 -0.058140013 -0.11807657 -0.08690492 -0.14656506
-0.07647675 0.043715853 0.08725922 0.034426607 -0.13732006 -0.61292845 0.22850777 0.029145045
-0.048031356 0.100224465 0.019727357 0.034252256 0.0519368 0.020163978 -0.055759616 -0.10296808
-0.11810979 -0.30733052 0.19794086 -0.02454246 -0.088502064 0.09302456 -0.01155975 0.091364205
0.2553082 -0.1894167 -0.12883085 -0.08636204 -0.05477461 -0.10344959 -0.012138865 0.20630181
0.09705617 -0.10863712 0.18605578 0.21827984 0.088967785 0.16358382 -0.20251119 -0.04155117
-0.098541014 -0.39614344 -0.3447251 0.0040953266 -0.17265518 -0.22102684 0.0030281413 0.0038923142
0.03504422 -0.20467937 -0.28477675 0.1470539 -0.04535203 -0.29997388 -0.0021093157 0.08402866
-0.12625572 -0.03292571 -0.024715386 -0.18678539 0.24287082 0.012976522 -0.09432975 0.04016754
0.062400125 -0.2762975 -0.27446282 0.0715831 -0.23073569 -0.10987261 -0.04266788 -0.2765445
-0.19121787 0.013821724 0.108194456 0.05497468 0.010589686 0.075062655 -0.024254123 0.18686767
0.2815024 0.098344944 -0.16506639 -0.105107896 -0.037491508 -0.1658171 -0.20080628 -0.024429219
-0.085574135 0.028163008 0.062100366 -0.16775455 -0.28776515 -0.1405789 0.03223248 -0.3268306
-0.07945805 0.046440903 -0.24295877 0.042214863 0.19835664 -0.0052964995 0.037766732 -0.11567834
0.028389797 -0.029205197 -0.08509746 -0.10348487 -0.18290377 -0.06093079 -0.28410375 -0.14778338
0.062440183 -0.056737177 -0.063924044 0.10720165 -0.0065301294 0.13821429 0.1011969 0.15193196
0.2333693 -0.108201794 -0.008749319 -0.1778022 0.22329961 0.14116973 0.00678071 -0.27552903
-0.13762787 -0.17377838 -0.028662708 -0.06513206 -0.05989481 -0.013803037 -0.08091278 -0.06876821
-0.04421005 0.05590959 0.062909365 -0.07869201 -0.0019951959 0.09163435 0.027734157 0.13801895
-0.027361281 -0.22002345 0.08729885 -0.31042996 -0.1955674 -0.03012755 0.04429854 -0.33046055
-0.09537827 0.08561983 0.008245017 0.23641537 0.18562827 0.10243657 0.05723845 0.044975612
0.19088967 0.10500158 0.11073062 0.055215552 -0.2608585 -0.1339453 -0.13715594 -0.12744457
-0.14689983 -0.13397378 -0.29799822 -0.17205171 -0.004107713 -0.029789109 0.04913211 0.13889219
-0.23406552 0.08585725 0.029905364 -0.05313162 -0.050667394 -0.17103589 -0.085442975 -0.070694506
-0.017306816 -0.06600731 0.09047791 -0.037948184 0.06566123 0.004483975 -0.22881223 -0.1331188
-0.041046243 -0.13062537 0.07262027 0.262047 -0.018008124 -0.38307962 -0.10094397 -0.07154712
0.10478412 0.07484976 0.004655992 -0.06539259 0.03336176 0.08618239 0.022639401 -0.020216698
-0.078958884 -0.0013926751 -0.039762743 0.07239334 -0.056659337 -0.055199463 -0.04525388 -0.038635604
0.010703061 -0.04030958 0.08366663 0.12386108 -0.020851815 -0.14965181 -0.09324175 0.0032702892

in_block.conv3.bias f4 [64]
00000000: 8111 8cbd 8323 1bbc 6292 f9bd a48c 29bd
00000010: 19cb 34be 4a66 cc3c eaa2 3abe 70aa 9ebe
00000020: 64f7 7e3c 9d01 afbe d465 28be 62bf 4abe
00000030: 4ff2 7abe f2d7 66be 21e6 5bbd fa56 dfbd
00000040: 6b39 783d c7a6 d1be ee18 91be f15d 483d
00000050: 3c9e c6bd b199 9dbd 1620 f1be 937a 193c
00000060: b766 dabd 290b 93be 48ec 9abe 50ef 2cbe
00000070: 90ad 703d fb83 7cbd 7778 f2be b23f 6e3d
00000080: aaf3 a5be 2d59 29be a2be 9fbe 6199 c3bd
00000090: a471 a33b cfbc 22be 6f77 69bd cb09 2bbe
000000a0: f65f 43ba 3c8d 873d 3bb1 433e 85f5 fcbd
000000b0: 4b48 823e 6b60 7c3c ce81 02bc 5c2c 0ebd
000000c0: e797 65be 709b 853b efba 59be f8a3 a0be
000000d0: 27da bebd 9f19 4a3e 1b06 a1bc fba6 16be
000000e0: 9f9f c0bd 93c8 2ebe 3ec6 a8bd 4375 74bc
000000f0: c817 80be 14e0 afbe e9b7 e2be 4cc0 2fbd
-0.06839276 -0.009468916 -0.121861234 -0.04139389 -0.176556 0.024951119 -0.1822621 -0.30989408
0.015561912 -0.34180918 -0.16445094 -0.19799569 -0.24506496 -0.22543314 -0.053686265 -0.10905261
0.060601633 -0.40947554 -0.28339332 0.048917715 -0.096981496 -0.0769533 -0.47094792 0.009367603
-0.106641226 -0.28719452 -0.30258393 -0.16888165 0.058759272 -0.061649304 -0.47357532 0.058166213
-0.32412463 -0.16537924 -0.3120013 -0.09550739 0.0049879123 -0.15892337 -0.056998666 -0.16702954
-0.0007452959 0.06618735 0.19110577 -0.12351517 0.2544578 0.015403847 -0.007965518 -0.034710273
-0.22421227 0.0040773675 -0.21262716 -0.31375098 -0.09318953 0.19736336 -0.019656232 -0.14712135
-0.09405445 -0.170687 -0.08240937 -0.0149205355 -0.25018144 -0.34350646 -0.44280937 -0.042907998

in_block.conv4.weight f4 [16, 64, 3, 3]
00000000: 5b88 8fbd 0065 bbbc ce59 d8bd 60ee 35bd
00000010: 6f7f 2d3c 68fb e3bd ecf4 e0bd 71db e63b
00000020: e463 1fbe 1541 0bbe 0305 b8bd 8672 aebc
00000030: 6513 8bbd b045 673b fcf9 94bc f48a a1bd
00000040: 7672 0f3d ddba 90bd 6e28 07be 9d0a b83c
00000050: 34f8 f13c b714 bd3c 3827 b9bd a732 fbbd
00000060: 17f0 0c3c add8 7dbe 4c23 1cbe d1ee 953e
00000070: 7030 e23e ab50 013f 0369 bd3e 4be7 ba3e
00000080: eb06 cf3e 50c7 bc3e 35de 583e d1dd e03e
00000090: d1c0 c03d 0e0b 0d3e dae7 c73d 61f9 633d
000000a0: 9901 efbd fc04 f0bd bc55 5dbc 8c21 cb3d
000000b0: 5daa b33d b37e 32be c98c 6bbe 136e 4dbd
000000c0: 89fb 96bd 1aeb 2cbd 258d 30be 237d 28bd
000000d0: 3f0a 6abc cb64 063d 6001 39be e07d 39be
000000e0: b9e0 f4bd 34ab 6abe 6524 8fbe e4c6 88bd
000000f0: bbb0 19be 9063 08be 6d7e c1bd b895 2b3d
00000100: 3c6c 9e3d 0005 91bd 6089 97bd 1ccb 7cbd
00000110: 7c0e 1bbd 130a ba3c 5aff c43c 69e9 09bd
00000120: 85ca 653e 4b36 8f3e 7754 023f 4201 0b3d
00000130: 1d1b 713e b177 c13e 45de 9e3d 37e4 d83d
00000140: 4271 c33e fe96 233d 13a9 aabd aa6b 04be
00000150: 4565 79bd a863 b23d 1151 13be 1003 62bc
00000160: 40c8 323b b908 84bc dc16 20bd 9ff0 4f3c
00000170: f932 30bd c651 96bc d40a 9a3d 6f49 32be
00000180: f2a6 a5ba a6cf 003c 47b2 1abe d3aa 213e
00000190: 6352 033e 277c 81bc a8ce d7ba 6ce1 f5bd
000001a0: 9915 bdbd c760 abbd 278b 0dbe c63b 253d
000001b0: 8924 003e 66c9 b53d a900 453d 3827 a23d
000001c0: 8cca 2c3e 53d4 a2bd 4f1d e5bc 43db e93c
000001d0: d1cd 35bd e26a e7bc 4df4 573d 48a4 92bc
000001e0: 7881 463d 7ca2 f93d f76a a3ba 254f 213e
000001f0: 3241 f43c 3a4e a93c 80f4 9dbd c074 b4be
00000200: df65 4dbf 28a4 82bd ad81 43be b64e 15bf
00000210: a90d 1ebe ec50 6fbe 2350 b9be 9a63 493c
00000220: cc92 db3c 82bd e63d c63d 6abd b181 143e
00000230: 63a8 7e3e 8e63 1e3d 3b68 333d 4f4b 3dbe
00000240: 828c 16bd 3393 bcbe 3399 d3be bf23 26be
00000250: 2b1b b9be 9357 e8be 3512 2eba 0f95 85be
00000260: b573 f8be ffa7 d33d c43a 17be c6d8 59bc
00000270: 421c d93c f3a0 ccbd ba5b e4bd 0cf6 bf3d
00000280: 96ef a2bd 4cfc 66be aa0c 93bd 4017 62bd
00000290: db46 513e 84c9 613c bb84 eb3c e104 3b3e
000002a0: 3185 373e c9c2 eebd e5e4 d83d 48c0 e7bc
000002b0: f060 f13a 8315 b7bd 247a 54be 5080 08be
000002c0: 1ec8 44be 6131 04bf 161f 90be fb13 9abe
000002d0: 9985 53be 98f0 35be baac 9e3e bb45 16be
000002e0: af6e fabd ef06 983d 8af8 f2bc 2d4f 15be
000002f0: 3446 133c 6687 5ebd db26 7cbc 86dc e73d
00000300: 4b2e 34bd b8c7 b9bd 9b94 8f3d a18d 61bc
00000310: a816 1bbe c519 ac3d 0d19 bc3d 9363 553d
00000320: 0276 d33c 9945 20bd 6a8c 2b3d d83e f7bc
00000330: fc26 f43d 3cb9 4a3e 931a d3ba b77e f83c
00000340: fa86 60be a2a0 01bf ff13 223e c522 0abd
00000350: 3cd6 a1be 6ad6 083e 177e a13c 2599 3bbe
00000360: f979 1f3e 406b cabd 85fb 7ebe 5391 bd3d
00000370: 1b37 0cbe 7901 94be ceb7 0d3e ee4f 40bd
00000380: 9e2f f5bd e096 2cbd 079e e2bd 380e 87be
00000390: 1abf 733d 3b72 2fbe 5d53 aabd 2c2e 053e
000003a0: eb6b 823d 78bb 29be f7b6 a33d ea67 e0bd
000003b0: d170 c3be 927f d03d eee6 08bd 8e1d 85be
000003c0: d750 8f3d 5dd0 39be c5f1 6cbe da8f b8ba
000003d0: 32d3 afbc fb70 8bbd d112 05bd 6b5e 183b
000003e0: 159e 0cbe 4e6e a73d 838b 3a3d 29fa 66be
000003f0: b3f6 49be ebe2 b3bc 2561 173d 0657 3dbe
-0.070084296 -0.022875309 -0.10564004 -0.044416785 0.010589465 -0.11131936 -0.10984215 0.0070452024
-0.15565449 -0.13599046 -0.08985331 -0.021294843 -0.067908086 0.003528934 -0.018185608 -0.07887831
0.035021268 -0.07066891 -0.13199016 0.022465998 0.029537298 0.023081167 -0.090406835 -0.122655205
0.008602164 -0.24789687 -0.1524784 0.29283765 0.4417758 0.50513715 0.3699418 0.36504588
0.40434965 0.36870813 0.21178515 0.43919232 0.09411777 0.13773748 0.09761019 0.055657748
-0.116702266 -0.11719701 -0.01350921 0.09918508 0.087727286 -0.17431144 -0.23002924 -0.050153803
-0.07372195 -0.042216398 -0.17241342 -0.041134965 -0.014284669 0.032810967 -0.18066931 -0.18114424
-0.11956925 -0.22916871 -0.27957454 -0.066785604 -0.15008824 -0.1331923 -0.09447942 0.04189083
0.07735488 -0.07081032 -0.07399249 -0.061717138 -0.03785561 0.022709882 0.024047542 -0.033669863
0.22440536 0.2797111 0.50910133 0.033936746 0.23545499 0.3778663 0.07757238 0.105904035
0.38172346 0.03993892 -0.083330296 -0.12931696 -0.060887594 0.08710414 -0.14386393 -0.0137946755
0.0027280003 -0.01611744 -0.0390843 0.012691646 -0.04301736 -0.01834954 0.075215966 -0.17410825
-0.0012638255 0.007862007 -0.1510707 0.1578782 0.12824397 -0.01580627 -0.0016464787 -0.120058864
-0.09232635 -0.08368068 -0.13822614 0.040340208 0.12513937 0.08876304 0.048096333 0.07917637
0.1687414 -0.07950654 -0.027968077 0.028546935 -0.044385735 -0.028249208 0.052723218 -0.017900601
0.048463315 0.121891946 -0.0012467791 0.15752847 0.029816244 0.020667184 -0.0771265 -0.35245323
-0.8023357 -0.063789666 -0.19092436 -0.5832323 -0.15434898 -0.23370713 -0.36193952 0.012291813
0.026803397 0.112666145 -0.057187818 0.14502598 0.24868922 0.03866916 0.043800574 -0.18485759
-0.036755092 -0.36831054 -0.4132782 -0.16224574 -0.3615354 -0.45379314 -0.00066402863 -0.26090285
-0.48525777 0.10334777 -0.14768511 -0.013296312 0.026502732 -0.09991636 -0.11150308 0.093731016
-0.07955854 -0.22557181 -0.0718015 -0.055197954 0.20437185 0.013780955 0.028749814 0.1826358
0.17921902 -0.11658246 0.10590533 -0.028289929 0.001841573 -0.0893965 -0.20749718 -0.13330197
-0.19216964 -0.51637846 -0.28148717 -0.3009337 -0.20656432 -0.1776756 0.30991155 -0.14675038
-0.122281425 0.074231975 -0.029659528 -0.14580984 0.008988906 -0.054328345 -0.015390123 0.113213584
-0.04398946 -0.090712965 0.07010766 -0.013766677 -0.15145361 0.08403353 0.091844656 0.052096914
0.025813106 -0.039128873 0.041881956 -0.030181333 0.11921498 0.19797224 -0.0016105942 0.03033386
-0.2192649 -0.5063573 0.1582794 -0.033724565 -0.3160876 0.13363042 0.019713445 -0.18320139
0.15573873 -0.098837376 -0.24900635 0.09256234 -0.13692896 -0.28907374 0.13839647 -0.046951227
-0.11971973 -0.042136073 -0.110652976 -0.26378036 0.05950842 -0.17133419 -0.083166815 0.13005894
0.0636824 -0.1657542 0.07993882 -0.1095732 -0.3817201 0.10180582 -0.033423357 -0.2599911
0.06997841 -0.1814589 -0.23139103 -0.0014080957 -0.02146301 -0.06808659 -0.032488648 0.0023249637
-0.13732179 0.08175336 0.045543205 -0.22556366 -0.19723015 -0.021958789 0.03695788 -0.18490228

in_block.conv4.bias f4 [16]
00000000: 8429 bdbe 06a5 14bd 0ccb abbe 7e01 86bc
00000010: b757 8ebe 5e55 61bd 42ae a0bd b7c2 7fbd
00000020: 296d 27be b17e 88bc aca0 dbbd 9e29 62be
00000030: f0f8 0fbf 7502 02be 148f 5cbe 8458 1ebe
-0.36945736 -0.03629019 -0.3355335 -0.016358133 -0.27801296 -0.055013053 -0.07845737 -0.062441554
-0.16350235 -0.016661974 -0.10724005 -0.22086188 -0.56239223 -0.1269625 -0.21538955 -0.15463454

dense1.weight f4 [16, 16]
00000000: 09ab a1bd 5d3c 0ebe 8ca6 0d3e 525b 013d
00000010: 0b82 bd3d bb7d 94bb 3aac 863d b0de dabc
00000020: 8069 013e 2bba 2bbf aa19 733e 0946 c83e
00000030: a720 9a3e d16e 3ebe 3245 11bf c1da 053d
00000040: 2a33 f7ba ea38 453e cc25 97bc 0c17 bebb
00000050: 7af2 7ebb f60a 92bd e732 57bd c0d0 bb3d
00000060: 8cf6 1e3e f2ec 21bf 3d13 fe3d 2b0d 7e3e
00000070: b4de 693e ed1a 53be 7aae b2be a5b8 d7bd
00000080: ffe4 933d f0cf 3a3d 42a3 eebb cdb7 0abe
00000090: c573 d0bd 24e3 093e 71ff f13d 0221 00be
000000a0: 960f 8dbe da54 223f 2947 44be 59cf cebe
000000b0: b892 d2be 1920 153e 3ceb b83e 5a07 54bc
000000c0: feb4 323e 96a9 9bbc 0fc6 e4bd 3386 9a3d
000000d0: 28bb 80bd 0795 8c3e efe7 c83c c939 63be
000000e0: 5b46 a5be 0cdb 143f 8eda 8fbd 2ebc bebe
000000f0: 686c 05bf 0e19 483e 7fee 023f b83d 593d
00000100: 051a b3bb 6af6 21bd ecb7 38be 88fb 4a3e
00000110: fcd6 2ebd 1532 68be c8f0 edbd 3044 2c3d
00000120: 276f 463e e207 42bf 54c4 cf3c 023a b93d
00000130: d2a9 053f e29d 55be 3c09 d0bd 7cfd 97bd
00000140: 325f 8c3d 1803 973e 5591 623c 4e57 f3bc
00000150: f59a 983d 10bd febd 2139 b4bd 06a0 fe3d
00000160: df24 2dbe e722 0a3f 9662 bebe f95b 383e
00000170: a79c acbe 9cb0 303e d55b ac3e 4c0e 733c
00000180: b7ae 85bd d6d3 53bd 03fe 1d3d 8ed0 11be
00000190: 69df 3b3d ab6c 2cbe 4267 5cbe 6823 123e
000001a0: 7d75 4e3d 557c 25bf 363a 493e ea3b a03e
000001b0: 90f4 6f3e 36fd 86be 8bc5 c8be a2b8 12bd
000001c0: d302 2dbe a746 dd3d 71b3 e5bd 5be9 34be
000001d0: 3d86 033c 1d08 72bd 2715 5cbd 3e23 213e
000001e0: 451e 67be 0c37 543f e59d 1dbe 04e7 94be
000001f0: e3b2 ffbe b620 5c3e bc35 283f 5c10 3cbd
00000200: 0c8a d4bd 45eb fbbd a4a8 d13d a7e9 b7bd
00000210: 8837 2d3d ad9f c3bd 20a9 4bbe 16c7 f73c
00000220: 93ee 123e 7946 24bf bd03 4b3e 4d84 913e
00000230: fc6b d73e 7a25 f6bd 1ad9 04bf d8cb 783d
00000240: ec4f a73c 15d2 b53c bb45 93bd 5149 b63d
00000250: 94a1 6f3d 07d1 4c3e 43d0 363e eebf b93c
00000260: e464 a3be d6bf 1a3f 3fb8 b6be 5f15 68be
00000270: d7e1 e6be 64ff 333e c627 103f 1a57 42bd
00000280: affa 2fbe 7e5c 9b3d 3e5d e73d 4053 46be
00000290: c257 783d 5667 0f3d deb1 d33d 7143 033e
000002a0: 586d 6a3e d6ab 14bf c788 2c3e c3f7 963e
000002b0: d1c0 ec3e 35d9 32be 25ae 0dbf e90e 943d
000002c0: 1002 babd 7273 3a3e 3dd4 c7bd 3710 a93d
000002d0: 8208 84bd 7be2 abbe fb92 05be aa07 ce3d
000002e0: e304 0f3e 1cae 35bf 4724 8f3d 8bd1 873e
000002f0: 7c16 4d3e 31c5 34be 0ec5 b9be 27ec 45bd
00000300: 5ab8 243d 773d 913d cb50 9f3d 95ff 2a3e
00000310: c9b0 a93d cad6 05be 86b9 19bd dbef 0f3d
00000320: 7993 d53d e969 2cbf b77b 913e eb9e 273e
00000330: d2f4 803e a9a5 8bbe 7afc c0be 2e8f b8bc
00000340: ccaf e43d f968 953c a5e5 41bc f790 743d
00000350: d26f 39bc 1059 863e 405a 0b3e 349e 14be
00000360: b5a0 39bc dd47 233f fd63 8fbc c6f7 95be
00000370: 5c48 00bf 2b01 0b3e fbb2 953e 9b04 6ebd
00000380: 30b9 f53c b185 20be 0089 1c3e 5842 463e
00000390: 3b80 2b3d 3463 2a3d 632b c13c 93d1 9dbd
000003a0: c7f7 253e 3180 05bf 6d9a 473e db18 113e
000003b0: b8d4 143f be6c 2cbe 80e7 03bf 8c85 543d
000003c0: bb8e 0ebe d748 733d d310 8fbd dc6d a23d
000003d0: 1a5f 1e3d a0a6 583d e772 8b3e 37b2 6a3d
000003e0: b0b2 4fbe b877 223f afb4 c1be 0951 d3be
000003f0: 4620 dfbe a3e1 6c3e 0a34 e33e c55d 5e3b
-0.078939505 -0.13890214 0.13833064 0.03158123 0.09253319 -0.00453159 0.06575818 -0.026717514
0.12637901 -0.67080945 0.23740259 0.39115933 0.30103037 -0.1859696 -0.5674621 0.032679323
-0.0018859853 0.19259992 -0.01845064 -0.0058010872 -0.0038901852 -0.07130997 -0.05253878 0.09170675
0.15523738 -0.63252175 0.12406013 0.2480971 0.22838861 -0.2061574 -0.3489874 -0.10533265
0.07221412 0.04560846 -0.0072826454 -0.13546677 -0.10178331 0.13465554 0.118163 -0.12512591
-0.27550954 0.63410723 -0.1916777 -0.4039257 -0.41127563 0.14563026 0.3611697 -0.012941206
0.17451856 -0.019001763 -0.11170589 0.07545128 -0.06285697 0.2745745 0.024524657 -0.22190012
-0.3228024 0.5814674 -0.07024108 -0.37252945 -0.5211854 0.19540808 0.51145166 0.053037375
-0.0054657483 -0.03954164 -0.1803891 0.19822514 -0.042685494 -0.22675355 -0.11618191 0.042057216
0.19378339 -0.7579328 0.025362171 0.09044267 0.5221225 -0.20861009 -0.10158011 -0.07421395
0.068540946 0.29494548 0.013828595 -0.029704716 0.07451431 -0.124384046 -0.08799959 0.12432866
-0.16908596 0.53959507 -0.3718459 0.18003835 -0.33713266 0.17254871 0.33663812 0.014834952
-0.06527465 -0.051715694 0.038572323 -0.14239714 0.045867357 -0.16838329 -0.21523765 0.14271319
0.050405014 -0.6464284 0.19651112 0.3129571 0.23433137 -0.2636506 -0.39213213 -0.03582061
-0.16895609 0.108044915 -0.11215866 -0.17667143 0.00802761 -0.05908977 -0.05373111 0.157361
-0.2257014 0.82896495 -0.15392263 -0.290825 -0.49941167 0.21496853 0.6570699 -0.04591404
-0.10377893 -0.123007335 0.10237244 -0.089801125 0.042289287 -0.0955194 -0.19888735 0.030246299
0.14348821 -0.6417003 0.19825645 0.2842125 0.42074573 -0.12018867 -0.5189377 0.060741276
0.020423852 0.022194901 -0.071910344 0.08900703 0.058503702 0.20001613 0.17852883 0.022674527
-0.3191291 0.6044897 -0.35687444 -0.22664402 -0.45094177 0.17577893 0.5631069 -0.047446348
-0.17185472 0.07586001 0.112970814 -0.19367695 0.060630567 0.03501066 0.1033666 0.12818696
0.22893274 -0.580747 0.16849051 0.29485902 0.46240857 -0.1746567 -0.5534385 0.072294064
-0.09082425 0.18208101 -0.09757278 0.08255046 -0.06446935 -0.33571228 -0.1304435 0.100600556
0.13966708 -0.70968795 0.06989341 0.26527056 0.20028108 -0.17653348 -0.36283153 -0.048320916
0.040214874 0.070918016 0.07779082 0.1669906 0.08285672 -0.13070217 -0.037530445 0.035140853
0.10428519 -0.67349106 0.284147 0.16369216 0.25186783 -0.27274826 -0.37692624 -0.02252921
0.11166343 0.018238531 -0.011834537 0.05970856 -0.011318164 0.26239824 0.13608646 -0.14513475
-0.011329819 0.6378153 -0.017503733 -0.292906 -0.5011041 0.13574664 0.29238114 -0.05810986
0.02999553 -0.15675999 0.15286636 0.19361246 0.041870337 0.041598514 0.023580259 -0.07705989
0.16207801 -0.5214873 0.19492503 0.14169638 0.58137083 -0.16838357 -0.51525116 0.051885173
-0.13921635 0.059395637 -0.06985631 0.0793111 0.038664915 0.05289328 0.272361 0.057298865
-0.20283008 0.63463926 -0.37833163 -0.41272762 -0.4357931 0.23132949 0.4437564 0.0033930403

dense1.bias f4 [16]
00000000: 8e88 1abe c78c 27be c5ec 893d 21f8 823e
00000010: 908c 903d 5f3a d0be 3959 3ebe 9c92 2f3e
00000020: 19b4 b53b 56bb 51be c95b 03be 08e3 eebb
00000030: 6390 343d f10a b73e e6a5 2b3e 6db8 63bc
-0.15091154 -0.16362296 0.06734613 0.25579932 0.0705806 -0.40669534 -0.18588723 0.17145771
0.005545151 -0.20481619 -0.12827982 -0.007290248 0.04408301 0.35750535 0.16762504 -0.013898951

dense2.weight f4 [16, 16]
00000000: 1ef3 31bf 7af4 e4be bd1e debc 40ce 12bd
00000010: 3f2d 72be e148 2f3e b214 11bf c98e 3bbd
00000020: 28c2 3abf 4955 82bd 9691 42bf 96fa d2be
00000030: 0ff8 d9be b3d4 67bd 6e27 48bf bb40 0ebd
00000040: d933 22bd eefa cc3d 0565 0ebf d191 2ebf
00000050: d92f b53d 6bfb bcbe b1d8 99bc 89f8 e0be
00000060: 25ae 9abc ecd5 1bbf 4b13 a8bc 7f29 9b3d
00000070: 03ec 453d 0b30 13bf f1f0 07bd 4c2d efbe
00000080: 0d4f 72bc 357b 313e a7cb 78bf a575 58bf
00000090: 365f ff3d 970a bdbe 883a 82bc 3bc2 34bf
000000a0: ac95 38bd eb3b 34bf 2756 36bd 8590 143e
000000b0: a047 8d3d e066 6cbf 5cfb 2dbd ec92 2bbf
000000c0: aa41 0dbf 0f42 f3be 988f 0fbd 050f 08bd
000000d0: e891 bbbe fc24 253e 2796 25bf b965 9bbe
000000e0: aacf f7be e57b 52bc 92c3 f2be 9c8c f4be
000000f0: a610 0fbf 9f05 37bd 8bd1 09bf c080 fcba
00000100: 6822 bbbc 832d 0b3e 336e 28bf 99f8 48bf
00000110: 498a 4f3d 0728 bbbe 513f 9d3b fa94 13bf
00000120: 4bb5 b5bc 56ac 3dbf 1d7f fdbc bffe a63d
00000130: 3b16 dc3c 6574 46bf 9fe3 0cbd b5d6 1ebf
00000140: 546c febc 192d 033e 26c1 3abf 38d6 37bf
00000150: 9518 1f3e 9ad6 a1be 43a1 05bc 480e 29bf
00000160: 0dc4 81bc b6c5 2cbf 516b 0cbd c5ce d13d
00000170: ad48 1a3d d706 48bf 5de8 55bd a68c 30bf
00000180: a4e6 2cbf d9da b9be 6ab0 dbbc 2358 54bd
00000190: 37a0 b2be 8f5b 353e 6b56 18bf a394 0ebd
000001a0: c8bd 35bf 09ae febc 6e66 21bf cabb c4be
000001b0: c383 f9be f113 52bd c8ea 15bf 75a8 21bd
000001c0: e170 f5be aaed 87bd dee9 23be 721a 05be
000001d0: 4d21 32be 2f06 91be 8928 8abe aea8 e53e
000001e0: 0851 febe e963 fbbd 6b1d 09bf c8fe 06bd
000001f0: bd07 73be ec72 32be 54dd 0ebf 7c77 f6bd
00000200: 4bab 08bd 3eb2 ce3d 75b4 42bf f422 2dbf
00000210: 1cee 003e 7ece b1be f4fe c9ba ff0c 27bf
00000220: d887 0dbd 8640 25bf 69e7 7fbc e601 fa3d
00000230: 0ccd 543d 1aaa 39bf 4b65 fbbb 4747 34bf
00000240: 806e e6bc 6f6a 0a3e 852d 3cbf 7560 12bf
00000250: be94 093e ddfa a5be b8dc e6bc ea05 02bf
00000260: 8da3 2abc 97e6 2dbf 4ee3 86bc 9f16 3e3e
00000270: 0207 733d 3b69 3cbf 09c2 09bd 9a4c 28bf
00000280: 0cbd 21bd dade 173e 45bf 73bf f2e3 51bf
00000290: 305d 303e c5cf c0be 33bf 263b 9a97 28bf
000002a0: 3d8b 88bc 0735 50bf 163f eebc e922 243e
000002b0: ebdd 563d 3b74 58bf e959 f1bc b25a 2ebf
000002c0: ea01 c5bc cc1e 993d 531a 1bbf ae06 12bf
000002d0: 27cc f03d 7972 a9be 52b0 14bd 3ca1 11bf
000002e0: 8b2a 8dbc cbda 1cbf 2326 acbc b191 c33d
000002f0: 774f d93c bb4c 27bf e3bb 00bd eaa0 09bf
00000300: f1e0 59bc c77f 193e bc9a 2dbf 9272 29bf
00000310: 565c d83d a6f9 bbbe 05bd c4bc 7daf 06bf
00000320: ca27 aebc 1c56 26bf 60fd 99bc 25d3 d63d
00000330: 4f74 563d e5b2 41bf fbaf bbbc 0936 1dbf
00000340: 0c24 7abc b75d 8d3d b8c5 15bf 30eb 19bf
00000350: 95c1 ae3d 6c36 9ebe c9fd e1bc f6c6 0abf
00000360: 7d91 b3bc e9ac 0fbf 1fea d5bc fb1d 7e3d
00000370: fe1a 8c3d faff 31bf a0f3 bebc 994c febe
00000380: 2770 2fbf 6fd0 babe 576f 3ebd 25c8 3dbd
00000390: 87c0 a0be 02d5 ff3d 4736 22bf eedc 40bc
000003a0: 720c 2fbf 6e01 17bd bc38 3fbf 244f dabe
000003b0: 004c efbe 5b19 30bd 9e49 33bf 3802 95bb
000003c0: 7d50 35bf afc3 e0be 84bb 7cbd 4930 97bd
000003d0: 554a a5be 9d15 1c3e eca1 1cbf e5c2 49bc
000003e0: 3272 1bbf ccaf 43bd eed5 21bf 017e b6be
000003f0: d360 08bf 99c3 4fbd e728 30bf ab92 3ebd
-0.6951159 -0.4471777 -0.027114267 -0.035841227 -0.23650073 0.17117645 -0.56672204 -0.045790467
-0.7295251 -0.06363923 -0.76003397 -0.41206807 -0.42572066 -0.05659933 -0.78185165 -0.0347297
-0.039600227 0.100087985 -0.55622894 -0.6819125 0.08847017 -0.36910567 -0.018780084 -0.43939617
-0.018881867 -0.60873294 -0.020517012 0.07576274 0.04832078 -0.5749518 -0.033188764 -0.46714246
-0.014789355 0.17332156 -0.9718575 -0.8455451 0.12469332 -0.36922142 -0.01589705 -0.7060887
-0.045064613 -0.7040393 -0.044515755 0.14508255 0.06898427 -0.92344475 -0.042476043 -0.6702106
-0.5517832 -0.47511336 -0.03504905 -0.03321745 -0.36634755 0.1612739 -0.6468224 -0.30351046
-0.48400623 -0.012846922 -0.47414833 -0.47763526 -0.5588478 -0.044683095 -0.5383536 -0.0019264445
-0.022843555 0.1359158 -0.6579315 -0.7850433 0.05066899 -0.36553976 0.0047988077 -0.57649195
-0.022181174 -0.7409109 -0.030944401 0.08154058 0.026866069 -0.77521354 -0.034396764 -0.62046367
-0.031057514 0.12810172 -0.7295097 -0.71811247 0.15536721 -0.3160904 -0.008156124 -0.66037416
-0.015840555 -0.6748918 -0.034282032 0.10244516 0.037666965 -0.78135437 -0.052223552 -0.6896461
-0.6753943 -0.3629978 -0.02681752 -0.051841866 -0.3488786 0.17710708 -0.59506863 -0.03480972
-0.7099271 -0.031088846 -0.6304692 -0.38424522 -0.4873334 -0.05128855 -0.5856137 -0.039467294
-0.47937682 -0.06637128 -0.16007182 -0.1299837 -0.17395516 -0.2832503 -0.2698405 0.44855255
-0.49671197 -0.12274916 -0.53560513 -0.032957822 -0.2373342 -0.17426652 -0.5580647 -0.120345086
-0.033366483 0.10092591 -0.76056606 -0.6763146 0.12590832 -0.34727854 -0.0015411065 -0.65254205
-0.03455338 -0.6455158 -0.015619137 0.12207393 0.05195336 -0.7252518 -0.007671987 -0.7042126
-0.028128862 0.13517164 -0.7350696 -0.5717843 0.13435647 -0.32417956 -0.028181419 -0.50790274
-0.01041497 -0.6792998 -0.01646581 0.18563317 0.059332855 -0.7359807 -0.033632312 -0.65741885
-0.03948693 0.14831105 -0.9521373 -0.8198844 0.17223048 -0.37658516 0.0025443553 -0.65856326
-0.016667956 -0.81330913 -0.029082816 0.16028942 0.05245773 -0.84552354 -0.029461818 -0.6810714
-0.024048764 0.07476577 -0.6058704 -0.5704144 0.11757689 -0.33095148 -0.036300965 -0.5688665
-0.0172322 -0.6127135 -0.021014279 0.09549273 0.02652715 -0.65351456 -0.031429183 -0.5376116
-0.013298259 0.1499015 -0.6781423 -0.66190445 0.10564487 -0.36713904 -0.024015913 -0.52611524
-0.021259207 -0.6497514 -0.018797576 0.104894914 0.052357014 -0.75663596 -0.022911062 -0.61410576
-0.015267383 0.0690264 -0.5850482 -0.6012449 0.085330166 -0.30900896 -0.027586835 -0.5420984
-0.02191996 -0.56123215 -0.026112614 0.06204031 0.06841086 -0.69531214 -0.023309529 -0.49667814
-0.68530506 -0.36487147 -0.0464929 -0.04633345 -0.31396887 0.124918 -0.6336407 -0.011771424
-0.68378365 -0.036866598 -0.74695945 -0.42638505 -0.4673767 -0.04299293 -0.70034206 -0.0045473836
-0.7082594 -0.43899295 -0.061702266 -0.073822565 -0.32283273 0.1524262 -0.61184573 -0.012314533
-0.60721123 -0.047775075 -0.63217056 -0.35643008 -0.5327274 -0.050723646 -0.6881241 -0.046526592

dense2.bias f4 [16]
00000000: 36a1 2f3e 28b4 123e d01b 3b3e 482e e63d
00000010: b8c7 3b3e 74e6 fe3d e3c5 2b3e 6b18 a13a
00000020: 397c 1c3e ac18 f23d 9899 0d3e 9bd5 ee3d
00000030: 489c 183e b095 eb3d aa81 1b3e 699f 1a3e
0.17151341 0.14326537 0.18272328 0.11239296 0.18337905 0.12446299 0.16774707 0.0012290602
0.15281762 0.11821112 0.13828123 0.11661836 0.14903367 0.1150316 0.15186182 0.15099873

dense3.weight f4 [1, 16]
00000000: 215b 95be 4d77 8b3e 8d98 3a3e 4026 acbe
00000010: f6fb 663e 6b0d 613e 2640 a0be 44a6 b2be
00000020: c332 5c3e a28a 723e fd9d 3a3e 7ba5 833e
00000030: 1945 653e 2534 833e a5b9 8ebe a515 a6be
-0.29171088 0.27239457 0.18222256 -0.33622932 0.22557053 0.21977775 -0.3129894 -0.34892476
0.21503739 0.23685697 0.1822433 0.2571219 0.2238964 0.2562572 -0.2787601 -0.32438388

470 f4 [2, 48]
00000000: 0039 633e 76de 273f d3f5 7c3c 0ee2 1d3f
00000010: 465e d73e 643e 79be 67c1 a93e 54e3 5e3f
00000020: e604 973d 6172 c5be c071 cebe 9461 f93d
00000030: 42a9 26bf 0110 893e 0ca0 0b3d b703 aebe
00000040: 41f3 9ebe a4d0 403e 37bd 913e 4c39 ebbd
00000050: 5c14 723d d3b3 70bd bb41 143f 0c5b 793e
00000060: d651 f53e 5312 213f 18a7 a53c bb35 2f3d
00000070: 39b0 f83d 4390 df3c 8eeb ac3d 5506 1c3f
00000080: 6158 1c3f 325f 063e 542b 383e 645c 433e
00000090: f713 98bd f85d bcbe fdb9 4bbe 8bd3 89bd
000000a0: bcd7 d1be 4ddb 733e e6ca 26be 15dc df3d
000000b0: edd9 433d f693 24bc c6e8 8339 31c1 9b3e
000000c0: 8cc8 643f 45b4 b6bd ed7d 203f b972 053f
000000d0: e5a3 89bb 30cf 3e3e 0707 293c 617e 643d
000000e0: 0887 593f 8876 abbe 1aa6 ad3d f365 48be
000000f0: e453 8d3e 237b 963e aca4 663e 2aa7 0cbc
00000100: 6737 93bd 70ab debd b873 59bd ab2d 7fbc
00000110: c248 45be 4e7e 8fbe b687 d33d d1e3 f43d
00000120: 5465 fb3e 401b 11be cfa6 653f 7c42 013f
00000130: cd6b cebe 76ba 1cbd 950e 00be fdd7 533e
00000140: f21e b33e a4c6 30be 5ef2 6f3e 4158 2fbe
00000150: 4d43 24be 1246 15bd 580f ea3d 5a61 47be
00000160: a6f0 edbd 32f0 f8bd bb49 5dbe 1213 2dbe
00000170: 6eb1 3f3e df65 3ebe bcba f23c ef0d 9ebe
0.22189713 0.65573823 0.015439468 0.6167306 0.42064112 -0.24340206 0.33155367 0.87065625
0.07373981 -0.38563827 -0.4032116 0.12176815 -0.65102017 0.26770023 0.03408818 -0.3398721
-0.31044963 0.1882959 0.28464672 -0.11485538 0.059101447 -0.058765244 0.57912797 0.24351138
0.47913998 0.62918586 0.020221278 0.04277585 0.12142987 0.027290469 0.08443366 0.6094716
0.61072356 0.13122252 0.17985278 0.19078213 -0.07425683 -0.36790442 -0.19895168 -0.06729802
-0.40984905 0.23814125 -0.16288337 0.10930649 0.047815252 -0.010045042 0.00025159697 0.3042083
0.8936851 -0.089211024 0.6269215 0.5212818 -0.004200446 0.18633723 0.010316617 0.055784587
0.84971666 -0.3348887 0.08478947 -0.1957014 0.27603066 0.2939082 0.22523755 -0.008584777
-0.071883015 -0.10872543 -0.053088874 -0.015574853 -0.19266036 -0.2802605 0.10328619 0.11957515
0.49100745 -0.14170551 0.89707655 0.5049207 -0.4031662 -0.03826376 -0.12505563 0.20687862
0.34984547 -0.17263275 0.234323 -0.1712351 -0.16041298 -0.036443777 0.11428708 -0.1947073
-0.11618166 -0.121551886 -0.21610157 -0.16901806 0.18720028 -0.18593548 0.029630058 -0.30870005
