PLCMOS/models/plcmos_v0.onnx (onnx, 690971 bytes, 33 tensors)

in_blocks.0.conv1.weight f4 [32, 1, 3, 3]
000000 63 c6 d1 3e 37 96 19 3b 24 99 df 3d 16 51 91 bd
       0.4097167 0.0023435482 0.10917881 -0.07095544
000010 aa 95 2a 3e 7b 72 07 3e c9 21 a3 be c3 de 92 be
       0.16658655 0.13227265 -0.31861714 -0.2868558
000020 6e f3 80 bd fd cb ed bd 54 cf 27 be 92 0c e6 3d
       -0.062964305 -0.11611173 -0.16387683 0.11232866
000030 a6 3d 3c 3f c7 21 98 3e a1 ac f7 be 34 3d df bd
       0.7353157 0.2971327 -0.48373893 -0.109003454
000040 3b 29 0e be 5c eb 0b be 51 75 7c be 21 83 fb bd
       -0.13882916 -0.13664001 -0.24654128 -0.1228087
000050 11 98 62 be ec 68 bb 3e 13 06 c5 3e ec 91 b8 be
       -0.22128321 0.36603487 0.38481197 -0.3604883
000060 87 99 2d 3d c8 2d 87 3e 5e ad a2 bd 4c 1e bb 3e
       0.042382743 0.26402116 -0.079432234 0.36546552
000070 ae de ee 3e 58 67 8b be 28 b7 41 3e d7 82 1c be
       0.46654266 -0.27227283 0.18917525 -0.15284286
000080 ee c5 70 3d 1f 98 aa be 8c 01 00 be 64 12 0d be
       0.05878251 -0.33319184 -0.1250059 -0.13776547
000090 f6 cf 0d 3f 5b 19 05 3e c4 8c 7e be 0b 6d 71 3e
       0.5539545 0.12997954 -0.24858385 0.23576753
0000a0 93 d8 65 be fb 4b 9b be 75 c5 0e be 43 06 42 bd
       -0.22445898 -0.30331406 -0.13942511 -0.047369253
0000b0 ce 63 b8 bc b3 b7 65 be 64 f7 d2 3e 2d 08 10 3f
       -0.022508528 -0.22433357 0.4120437 0.56262475
0000c0 01 54 b9 bd 7c a8 93 be b0 b8 04 bc 30 54 9b be
       -0.090492256 -0.2883948 -0.008100674 -0.30337667
0000d0 18 ab 3a be be 8a 04 3e 35 6b 47 be 3c 23 4b 3c
       -0.1822933 0.12943551 -0.1947449 0.012398537
0000e0 40 36 fa bd 95 cd 0c be 23 e0 f1 bd e6 7b 81 3e
       -0.122173786 -0.13750298 -0.11810329 0.2528984
0000f0 b9 18 1c 3f 1e 01 1a 3e 1e 25 f0 be aa ef 1e be
       0.60975224 0.15039489 -0.46903318 -0.15521112
000100 53 e3 78 be 01 6d 07 bd 9c 1e 02 be df c0 cc bd
       -0.24305467 -0.03306294 -0.12706989 -0.09997725
000110 1f 15 bd bd 75 90 eb 3d 49 86 13 3f 93 a0 0c 3e
       -0.09232544 0.11502162 0.5762678 0.13733129
000120 ab e9 f7 bd 31 41 51 3e 0d d6 53 bc d5 1b 8d bd
       -0.121051155 0.20435025 -0.012929452 -0.06890074
000130 c2 cf 9d 3e 6b 69 97 be 8c 09 48 3e 66 a6 6e 3e
       0.3082257 -0.29572615 0.19534892 0.23305663
000140 16 9b bb be b5 e0 27 3e c3 a5 81 3e ea 76 66 3d
       -0.3664176 0.16394313 0.2532178 0.05626575
000150 d0 16 20 3d 1c 03 e9 3d 52 ed 55 be e2 d3 42 bc
       0.039084256 0.11377546 -0.20891312 -0.011891337
000160 4e bb c0 3d e0 a7 68 be 4b 95 52 be b7 d5 04 be
       0.094107255 -0.22720289 -0.20564763 -0.1297215
000170 50 e2 f4 3d 54 90 bb bc b2 98 5c be 15 84 96 be
       0.11957228 -0.02289597 -0.21542624 -0.29397646
000180 af 73 3f 3e a6 00 b0 3e cf 54 85 3e f8 29 05 bc
       0.18696474 0.34375495 0.26041266 -0.008127682
000190 07 e6 c7 3e 29 be 65 3d 20 dd af bc 46 26 e4 3c
       0.39042684 0.056089554 -0.021467745 0.027850281
0001a0 68 25 9b be 9c 2e 73 3d 9c 01 80 3e 5a 5e ca be
       -0.30301976 0.059370622 0.25001228 -0.3952511
0001b0 55 d5 a2 be 77 95 b3 3e db d4 66 3d 39 9c b1 be
       -0.31803384 0.3507497 0.05635534 -0.346895
0001c0 b8 d6 ec 3e cd e6 71 bd c9 e0 57 be d9 1b 25 3e
       0.46257567 -0.059058 -0.21081842 0.16123904
0001d0 4f c1 d8 bd bd f7 a5 be 3c 81 31 3d a2 d8 49 3e
       -0.10583746 -0.32415572 0.043336138 0.19711545
0001e0 e3 19 a6 be 1e b2 35 3e 72 73 4d 3e c7 bd 4e be
       -0.32441625 0.17743728 0.2006357 -0.20189582
0001f0 b3 8e e8 3d 97 75 a5 3c 2f 75 40 bd da 66 d3 bd
       0.11355343 0.020197673 -0.046986755 -0.10322352
000200 60 ab 32 be fd 02 28 be cf 24 d2 bb 71 79 1b 3c
       -0.17448187 -0.1640739 -0.0064130793 0.009489403
000210 a2 63 3a be be 39 ff 3e a4 4e b2 3e ff db ce bc
       -0.1820207 0.4984874 0.34825623 -0.025251387
000220 76 a7 09 be d3 9a c2 bd cd 4c 93 be 80 ab 5a bc
       -0.13442788 -0.095021866 -0.28769532 -0.013346553
000230 2e b3 fd 3e bb 22 7a be 36 c9 0f 3d d9 99 91 3e
       0.49550766 -0.24427311 0.035104 0.2843769
000240 f8 52 4c 3e 21 b6 9f 3e 3a 3f ea bd 62 da fb be
       0.19953525 0.3119364 -0.11437841 -0.4919005
000250 ff 00 6e be 12 95 0d 3e b2 8c b1 3e 07 02 ba bc
       -0.23242567 0.13826397 0.34677655 -0.022706045
000260 fe 2a 6b bd c1 db cf bd 89 40 76 3e af b0 9b be
       -0.057414047 -0.101493366 0.24048056 -0.30408236
000270 89 94 15 be c8 ff 22 3e 72 48 24 bd a0 7b 38 be
       -0.14607443 0.15917885 -0.04010815 -0.18015909
000280 6c 82 82 be 1a d0 cd 3d 86 2c 13 3d 04 a7 e7 3e
       -0.2549013 0.10049458 0.035931133 0.4524461
000290 9d 12 fe 3e 3e e9 c9 bd 66 64 1d be 8a 68 49 be
       0.49623576 -0.098589405 -0.1537033 -0.19668785
0002a0 b7 24 54 be cf 4b 26 be ad e1 5c be e8 c7 f3 3e
       -0.2071713 -0.16239856 -0.21570463 0.47613454
0002b0 86 19 d0 3d 2a 19 62 3e a1 89 3f be 1a 8a 62 be
       0.10161118 0.22079912 -0.18704845 -0.22122994
0002c0 d9 91 c7 be bb 72 b4 be ea 9e 80 3e 79 e9 38 3e
       -0.3897846 -0.35243782 0.25121242 0.18057813
0002d0 9d 05 12 be 86 72 4c be f9 5b 49 be 9e 0c 47 3d
       -0.14259954 -0.19965562 -0.19663991 0.048596017
0002e0 5e 02 27 3f d1 b5 a1 3e aa 06 a8 bd 1b 0d 18 be
       0.6523799 0.31584027 -0.08204396 -0.1484875
0002f0 c3 e7 2f be dd f0 52 be 02 5d 8c 3e 9d e9 8f be
       -0.17178254 -0.20599695 0.2741471 -0.2810792
000300 53 4e a1 3e 3f a3 17 3f 5b 5a 3a be 7f 24 54 be
       0.3150507 0.5923347 -0.1819853 -0.20717047
000310 7a b7 b7 bd ca 38 39 be 3b b3 51 3e 17 ab a5 be
       -0.08970542 -0.1808807 0.20478527 -0.32357094
000320 39 d5 af be 99 1a 47 3e 53 bf 24 3e 72 03 ce 3e
       -0.34342363 0.1944374 0.1608861 0.40237004
000330 83 1d 04 be 22 ad 9c bd 9e 64 59 be be 46 71 3e
       -0.12901883 -0.0765021 -0.21229789 0.23562142
000340 9a f2 93 3e e1 eb b1 bd c8 ba bc be f6 d8 b6 be
       0.28896028 -0.086875685 -0.36861253 -0.35712403
000350 49 6d 8b 3e 8a 5f c9 3d e2 94 7a 3e 4d 0b 86 be
       0.27231815 0.09832676 0.24470857 -0.26180497
000360 81 95 62 be 8a 3b 5f 3e 8c 28 c1 be dd c2 12 3e
       -0.22127344 0.21800056 -0.37726247 0.14332147
000370 03 d5 ef bd d4 39 38 3f bf c5 e6 3d 43 f5 15 be
       -0.11710551 0.7196324 0.11268186 -0.14644341
000380 e2 7a a0 be 8e 73 a8 bd 33 5e 4a be 2f f0 a5 be
       -0.31343752 -0.08225165 -0.19762497 -0.32409808
000390 22 e1 85 be f5 85 14 3f 91 38 ff 3e 8b e6 85 be
       -0.26148325 0.580169 0.49847844 -0.26152453
0003a0 f7 7a 18 bb 30 96 f3 3d 35 4c b1 3c 46 f3 5e 3e
       -0.0023266652 0.1189388 0.021642784 0.21772489
0003b0 4e 25 ea be 56 6e c7 3d eb 5f ad 3e 87 83 7a be
       -0.45731586 0.09737842 0.33862242 -0.24464236
0003c0 ed 81 1c 3e 1e 66 66 3e 45 b8 87 be 90 9f 37 be
       0.15283938 0.22499892 -0.26507774 -0.17931962
0003d0 1e 57 0d be f3 61 81 be a0 62 f9 bd fd 16 24 3f
       -0.13802764 -0.25270042 -0.12177014 0.6409758
0003e0 b7 83 67 3e 51 3c 64 be 7c b2 2c 3e 5f a7 c8 bd
       0.22608839 -0.22288634 0.16864961 -0.097975485
0003f0 da af 7b bd 98 c6 96 bd fd 05 c1 3e 10 3d e2 bd
       -0.061447002 -0.073620975 0.3769988 -0.11046803

in_blocks.0.conv1.bias f4 [32]
000000 be 9e 83 bd 1d 38 ab bd 28 85 56 bd 7e 71 d1 bd
       -0.06426762 -0.08360312 -0.05237308 -0.10226725
000010 da 4d b8 bd 1a 57 1a be 9a 9f 81 bd bb 88 c8 bc
       -0.08999224 -0.15072289 -0.0632927 -0.02447926
000020 0c 03 8e bc f7 31 31 bd d1 2b ae bc 6d 99 9c bd
       -0.017335437 -0.04326054 -0.021261128 -0.07646451
000030 4a 39 bc bd 93 e7 01 be e0 90 8b bd b1 6a 14 bd
       -0.091906145 -0.12685995 -0.06814742 -0.03623456
000040 a6 ea 1d bd b0 d6 99 be 8a 88 bc bd da 99 71 bd
       -0.038553856 -0.30046606 -0.0920573 -0.058984615
000050 80 57 44 bd 18 0a 4f bd 9e 40 fc bd 44 7a 17 bd
       -0.04793501 -0.050546736 -0.12317012 -0.036981836
000060 1e 16 36 bd f6 9f ab bd 31 2e 31 be 33 f0 59 bd
       -0.044454686 -0.083801195 -0.17302777 -0.053207587
000070 5d d6 33 bd de 61 a1 be 8a 5b bb bd 18 8e 98 bc
       -0.043905605 -0.3151998 -0.09148319 -0.018622443

in_blocks.0.conv2.weight f4 [64, 32, 3, 3]
000000 b5 b8 97 3d 4f c1 28 3d a3 17 30 3d 25 d2 95 be
       0.07408277 0.04119998 0.04299129 -0.2926189
000010 29 04 26 3e d1 c3 f3 bd 46 52 6f 3d eb 3a 15 3e
       0.16212524 -0.119025834 0.05842807 0.14573257
000020 dc 30 b8 3c f6 8a d2 3d 70 1d 4e 3d e2 b1 08 3e
       0.022484235 0.10280411 0.050321043 0.13349107
000030 f9 8b 03 bf be bd 34 bf 74 7e db bd 70 af 04 3e
       -0.51385456 -0.70602024 -0.107174784 0.12957549
000040 b9 e4 c9 3d 19 0b 35 3e 71 3e ce bd 99 ea e7 3d
       0.098580785 0.17680015 -0.100705035 0.11324043
000050 20 e5 8d 3c a5 48 18 3e 04 3f e5 bd 4f 0b d0 bb
       0.01732117 0.14871462 -0.1119366 -0.0063490043
000060 c6 fb 27 3e d2 54 51 3d 2b 04 25 bd 46 4f 28 3e
       0.16404638 0.05110628 -0.040287178 0.1643649
000070 d7 34 86 3d 13 07 2a 3d e8 f4 81 be 8e 6e 6a 3d
       0.06553047 0.041510653 -0.2538216 0.05723434
000080 e2 c4 f9 bc 06 8c dc 3c 59 8b 84 bd 82 e3 8e 3c
       -0.030489389 0.026922237 -0.06471891 0.017442469
000090 eb 18 4e 3e 1f 34 50 3d c2 9d 39 3e 92 8f 9f bd
       0.20126693 0.050830957 0.18126586 -0.07791056
0000a0 62 af 94 bd 3f 62 06 3d f3 2e dc be 39 66 68 be
       -0.07260014 0.03280854 -0.4300457 -0.22695245
0000b0 23 0e cb bd aa d1 ce 3d 2d 8b b0 bc db c7 1a 3d
       -0.09914806 0.10098584 -0.02155074 0.037788253
0000c0 84 91 13 be ed fe e1 bc 36 cd 16 3d 14 1a b2 be
       -0.14410979 -0.027587378 0.0368168 -0.3478552
0000d0 cd 66 44 3c 5b 52 e9 3b b2 82 87 be 79 45 4f be
       0.0119874 0.0071204132 -0.264669 -0.20241345
0000e0 f8 54 6c be 0a 9b db 3d f9 ea 69 3e 52 1c 3d 3b
       -0.23079288 0.10722931 0.22843541 0.0028855992
0000f0 ae 40 b9 3d cc be 25 3e 4f aa 89 bd c8 a2 93 bc
       0.0904554 0.16186064 -0.06721937 -0.018021956
000100 f2 a9 92 3c 00 56 9b bd 8f c5 7a 3e 09 87 8b 3d
       0.017903302 -0.075847626 0.24489425 0.06812865
000110 3f 7c ae bb 66 83 80 3d 13 17 0d 3d 6c 69 0a 3d
       -0.00532487 0.06275062 0.034445833 0.033791944
000120 6c de d5 3c 25 90 00 be e7 47 cb bb 7e 4a 2f ba
       0.026107036 -0.12554987 -0.00620364 -0.00066868204
000130 86 82 f7 bb 26 65 d0 bc e6 ec ad bb ff 6e c5 3d
       -0.0075534014 -0.025438856 -0.0053077815 0.096403114
000140 68 ef b6 3c c8 30 a8 3d 1c 61 b3 bd 9b e8 01 bd
       0.022330955 0.08212429 -0.087587565 -0.03171597
000150 0c 4d 3d bd a7 0d 0a bd 24 17 c2 bc 46 e4 9b bd
       -0.046216056 -0.033704426 -0.023692675 -0.07611899
000160 f9 69 a6 bd bb 1e a0 bd c7 69 db 3c 1f 73 84 bd
       -0.081256814 -0.07818361 0.026783837 -0.0646727
000170 3b 1d 93 bd 5d ed 7a 3d 43 61 10 3d d1 27 3e bd
       -0.0718331 0.061261524 0.035249006 -0.04642469
000180 c6 09 2f 3c 9d 10 b6 3d 7d f7 a4 bd 34 d1 b0 3d
       0.0106834825 0.088898875 -0.08055017 0.08633652
000190 8b c9 16 be 7d 7d 9a bc 8e 4d eb bc 0f 52 c8 bd
       -0.1472532 -0.018858666 -0.028723504 -0.097812764
0001a0 ec 29 33 bd 75 74 82 bc 72 99 d1 3b ca 5c ea 3b
       -0.04374115 -0.015924672 0.006396466 0.0071521746
0001b0 d7 60 39 3e 72 5c 14 3d 7a 95 22 3e 77 c1 34 be
       0.18103348 0.036220975 0.15877333 -0.17651926
0001c0 8e b7 00 be 61 4d f9 bc 09 6c 9d be 14 24 a9 be
       -0.1257002 -0.030432405 -0.30746487 -0.33035338
0001d0 ce 48 a8 be 9c 7b e4 3d 3d c4 ab 3d 58 4f 40 3e
       -0.32868046 0.11156389 0.08387039 0.18780267
0001e0 58 d8 cc bd 3f e5 3c be 3a 6a 81 bd 8c e6 1a be
       -0.10002202 -0.18446825 -0.06319089 -0.15127009
0001f0 8f c0 26 be 7e 6c 63 bd f9 14 68 be bc b6 b9 3c
       -0.16284393 -0.055523388 -0.2266425 0.022670142
000200 e3 bf 09 be 38 a3 c4 3e d6 47 ef 3c 82 33 cd bb
       -0.13452105 0.38405776 0.029209059 -0.0062622437
000210 7c 52 93 3e 54 50 1a 3d 0d 6a a8 3d a5 15 7e 3c
       0.28773868 0.037674263 0.082233526 0.01550809
000220 7e c9 bd 3d d1 9c 85 3d 54 0b 3b be 8c 6a 21 be
       0.09266947 0.06524051 -0.1826604 -0.157633
000230 03 65 64 be 7f af 6e 3d 0e d2 25 3a 84 85 a7 3c
       -0.22304158 0.058272835 0.0006325551 0.020449407
000240 2e 6b 64 3e 86 ee 9a bd 3b 9c b7 3d 7e 7a a0 bd
       0.22306511 -0.07565026 0.089653455 -0.078358635
000250 00 fa d3 bd 61 8a de bd 27 62 92 be 79 b2 8b 3c
       -0.10350418 -0.108662374 -0.2859051 0.017052876
000260 0a c5 97 bb cf 1d d6 bc 22 58 b7 bc 13 92 ed 3c
       -0.004631643 -0.02613726 -0.022380892 0.029000318
000270 6c 42 b1 bd 7a 9b 97 3d af 0a c8 3d 12 4f 5b bd
       -0.08655247 0.07402702 0.09767663 -0.053542204
000280 5f 80 71 bd ba ac 1c 3d b6 af a7 3d 89 51 c0 bd
       -0.058960315 0.038250662 0.08187811 -0.093905516
000290 b0 d7 d2 3d 92 6a 1c bd 9c a3 a0 3d 0b 74 b1 bc
       0.102950454 -0.03818757 0.07843706 -0.021661779
0002a0 04 b2 91 be 0b bf a1 3d 5c c8 12 bd e0 5c bf 3c
       -0.28456128 0.07897767 -0.03583561 0.023359716
0002b0 45 25 0b be 6d ef e0 bd 67 8f 3c bc 1b 07 c0 3b
       -0.13588436 -0.10983167 -0.011508799 0.005860222
0002c0 fd c7 3a 3d a7 69 24 bf a4 fd 98 3d cb c6 27 3d
       0.04560088 -0.6422371 0.07470253 0.040961068
0002d0 7a dd 28 be d0 52 1e 3e 49 43 ce bd f2 c7 2d be
       -0.16490737 0.15461278 -0.100714274 -0.16970804
0002e0 57 55 6d be 5b fd 24 be 2f 29 ce 3d cc 20 32 bc
       -0.23177086 -0.16112272 0.10066449 -0.010872077
0002f0 68 02 48 bc 5f 8f 2c 3d 83 98 a9 3c 33 64 0b bd
       -0.012207605 0.042128917 0.020702606 -0.034031104
000300 a7 15 cd be ec 2e 4b be 84 20 64 be 27 b8 9b 3d
       -0.40055582 -0.19842118 -0.22278029 0.07603484
000310 5e 8b d3 bd 13 59 81 3c 8c d3 2e be 04 eb 0a bd
       -0.103293166 0.015789544 -0.17072886 -0.033915535
000320 58 da fd 3c 78 37 d9 bd e7 05 b8 bd d6 b8 3e 3d
       0.030987903 -0.10606283 -0.08985501 0.046562992
000330 9f d5 1d bd 05 e1 38 be 2c a8 8f 3d 99 7b 72 3e
       -0.038533803 -0.18054588 0.07014498 0.23679961
000340 dc b2 1d be 6a 87 9d 3d 9e a4 cb bd 13 17 2a 3b
       -0.1540026 0.07691844 -0.099435076 0.0025953695
000350 45 f3 e3 bd be 1d f9 be cf 7f eb bc cf 88 17 be
       -0.11130384 -0.48655504 -0.028747467 -0.14798282
000360 64 ac 05 be 35 32 03 bd a1 ce 23 bd 7c 42 c6 bd
       -0.13054043 -0.032030303 -0.03999198 -0.0968065
000370 69 18 51 bd 4e 3f 23 be a9 09 9c 3c 63 99 2f be
       -0.05104867 -0.15942118 0.019047575 -0.17148356
000380 47 b2 b0 bd e0 95 ed bd 2d a4 66 3e d2 2f 16 3e
       -0.08627754 -0.11600852 0.22523566 0.1466668
000390 e7 1c 82 be 6e 8b b7 be 14 9b 8c be 3f a3 ca 3d
       -0.25412676 -0.35848564 -0.27462065 0.09894418
0003a0 32 c1 eb bd a6 8d 6d bd 46 39 96 3d 05 eb 6e bd
       -0.115114585 -0.057996415 0.07335143 -0.0583296
0003b0 73 58 d3 bc 9a 1f 13 bc 0d f4 86 bd 2e 60 dd bb
       -0.025799012 -0.008979702 -0.06589518 -0.0067558503
0003c0 2c 6a b8 3d b3 9e 09 be 3a 97 51 3c 16 d3 b5 be
       0.09004626 -0.13439445 0.012792403 -0.35512608
0003d0 a2 87 fe 3d 80 da 3c bd 9d f0 f7 bd 5b 99 46 be
       0.12428214 -0.046106815 -0.1210644 -0.19394438
0003e0 5b 47 02 be cf db e0 3d e7 5f 5a bc a3 4e 8d bd
       -0.12722532 0.10979425 -0.013328529 -0.068997644
0003f0 d3 00 8f bd 5b 3e 06 be ee 72 af bc 93 23 16 bd
       -0.06982579 -0.13109724 -0.021417107 -0.03665502

in_blocks.0.conv2.bias f4 [64]
000000 c0 c6 63 bd 25 d2 82 be e8 6a 05 be dc 97 ef bc
       -0.055609465 -0.25550953 -0.13029063 -0.029247217
000010 fb fc 39 bd 03 6d 6c bd c3 8f 9b bd 07 a9 98 bd
       -0.045407277 -0.05772115 -0.0759578 -0.074541144
000020 f1 44 08 be 85 44 8c bd 63 b4 6e be 6b 26 69 be
       -0.13307549 -0.068490066 -0.23311 -0.22768562
000030 7a 77 ba bc d7 8e 92 3c 02 61 b3 bd 8e 04 73 bd
       -0.022762049 0.017890377 -0.08758737 -0.059330516
000040 9e 5f 8e bd e8 46 93 bd d3 6d c9 3b 07 1f 34 be
       -0.06951831 -0.07191259 0.0061471253 -0.17589961
000050 c0 66 c4 bd 72 01 cd bd 46 3a b7 bd 07 33 3f 3c
       -0.095899105 -0.10010041 -0.08946662 0.011669881
000060 9f 84 f2 bd 49 fa 4c be 61 e9 74 bd 20 9d 14 bd
       -0.11841702 -0.20017351 -0.05979288 -0.03628266
000070 96 ae ea bd 7a 9a 0c be 16 aa ae bc 8a f9 79 bd
       -0.11459081 -0.13730803 -0.021321338 -0.061028995
000080 de a9 b6 bd 8c ad bc bd 00 7f 95 be 45 16 10 be
       -0.08919118 -0.09212789 -0.29198456 -0.14070995
000090 f2 d4 89 be 65 6c 45 be 2f 43 34 bd 62 23 b0 bd
       -0.26920277 -0.1927963 -0.044009384 -0.08600499
0000a0 8c 43 fa bd cf 5d be bd 5c ac 26 bd c4 35 62 bd
       -0.12219915 -0.09295236 -0.04069172 -0.055227056
0000b0 17 d7 a4 bd 3e 81 9e 3c 96 b2 9f bd 04 04 e7 bd
       -0.08048838 0.019348737 -0.077977344 -0.11280063
0000c0 98 5d b5 bd e4 84 65 be f5 af 0d bd 12 35 06 be
       -0.08855742 -0.22413975 -0.034591634 -0.13106182
0000d0 95 e3 32 bd 25 46 0b 3d 73 99 4d be c4 e8 6b bd
       -0.04367407 0.034002442 -0.20078067 -0.05759503
0000e0 cb c8 ce bd 66 b5 3c bd 06 c6 8b bd 3d d0 57 bd
       -0.10096892 -0.046071433 -0.06824879 -0.052688826
0000f0 ec 50 b0 bd bb 40 49 be 6b af 48 bd 1f 8f 5b bd
       -0.086091846 -0.19653599 -0.048995417 -0.053603288

in_blocks.0.conv3.weight f4 [64, 64, 3, 3]
000000 52 0f 45 bd 03 5e f1 3d 7f 72 34 bd ed 77 14 3b
       -0.048110314 0.117855094 -0.044054504 0.002265449
000010 9e fe c7 3d 26 54 6d 3d a5 74 a6 3d dd 7e 5e 3c
       0.09765361 0.05794158 0.08127717 0.013580051
000020 39 d1 c8 bb bb b3 4c 3d 76 5d c4 3d 3d eb e7 3d
       -0.006128457 0.04997609 0.09588139 0.11324165
000030 32 b3 09 be 34 dc aa bc 57 cb 03 be 6f 53 23 be
       -0.13447264 -0.020856954 -0.12870537 -0.15949796
000040 50 cf c9 bc 0a 4b 0b be c1 2a e8 bc 40 63 1d be
       -0.024634987 -0.13602844 -0.0283407 -0.15369892
000050 e6 b5 50 bd 7f 80 37 3e 94 aa fe 3d a9 58 26 be
       -0.050954722 0.17920111 0.12434879 -0.16244759
000060 77 18 75 3d a6 f4 a6 bc be c0 8d bd 05 46 62 bd
       0.059837785 -0.02038033 -0.06921528 -0.055242557
000070 b8 0d 41 be 94 dd 05 3d 71 ad ad 3c 3b 53 d3 bd
       -0.1885289 0.032682016 0.021200867 -0.10318609
000080 7c b1 34 be 75 95 28 bd d0 99 a9 3c 38 91 14 be
       -0.1764583 -0.04115816 0.020703226 -0.14508522
000090 2e 55 bc ba 9c 64 e1 3b a9 4f 62 3d 4b 69 97 bd
       -0.0014368647 0.0068784487 0.05525175 -0.0739313
0000a0 11 7d 84 bc dc ac f1 bd f5 23 ea be 57 b4 39 be
       -0.016172918 -0.118005484 -0.45730558 -0.181352
0000b0 6f 5b 0a be 93 92 64 3a 1b c2 84 bd 39 4c b0 39
       -0.13511442 0.0008719351 -0.06482335 0.00033626126
0000c0 b2 db 0d be a6 90 a8 be 85 eb d7 bd 61 fb 44 bd
       -0.13853338 -0.32922858 -0.10542969 -0.048091296
0000d0 eb 08 01 be 5a 68 3b be d1 3b 66 3d 18 32 77 bd
       -0.12601058 -0.18301526 0.05620939 -0.060350507
0000e0 97 e7 02 3d ad 21 1f be f1 4b 94 be c9 98 bb bd
       0.031959143 -0.1554019 -0.2896419 -0.09160001
0000f0 04 64 5b bd f4 9b 43 be 65 a1 67 be e0 79 d9 3c
       -0.05356218 -0.1910246 -0.22620161 0.026547372
000100 bf e2 c1 3d 0d da a2 bd a4 34 e2 bb 8c 63 df 3c
       0.094670765 -0.07951746 -0.006903248 0.027269147
000110 01 d0 2e 3d c5 3b 71 bd 34 7b 85 be 54 c6 f9 bc
       0.042678837 -0.05889489 -0.2607056 -0.030490078
000120 77 5e e8 3c 5e 53 f5 3d 48 2e 7a 3e 7e 89 50 3e
       0.028365357 0.11978792 0.24431717 0.20364949
000130 51 1d a3 3e 24 88 6d 3c b7 06 25 3e 18 1f 35 3e
       0.31858304 0.0144977905 0.16115843 0.17687643
000140 51 05 ec bd 52 80 8a bd ba 35 b1 3d 9d 5b a3 bc
       -0.115244515 -0.067627564 0.08652826 -0.019941146
000150 2f 17 17 3c 2a f7 a3 3c 95 61 3c bd a0 2a 72 bd
       0.009221836 0.020015318 -0.0459915 -0.05912268
000160 70 33 03 bc 2b d5 5e 3d bc 8a fb 3d 40 37 4b be
       -0.008007869 0.05440251 0.12282321 -0.19845295
000170 56 59 6a 3d 43 0b 56 3e fa 7b 26 bd 3e dd 19 3c
       0.057214104 0.20902734 -0.040645577 0.009391127
000180 9f e8 66 3d 90 54 4a 3b 11 a3 97 bd 30 07 32 bd
       0.05637419 0.0030873157 -0.07404149 -0.043463886
000190 7a 97 6a 3d 9e 15 2e 3e f2 4a b3 3e a2 31 43 3e
       0.057273366 0.17000434 0.35018116 0.19061902
0001a0 62 b8 2a 3e a7 66 cf 3d c3 ff 34 3e e3 49 8f bd
       0.16671899 0.10127001 0.1767569 -0.06996515
0001b0 17 48 79 be 07 d7 a7 3c a0 ac 1c be 6e 31 b0 bd
       -0.24343906 0.020488275 -0.15300226 -0.08603178
0001c0 5d 6b 03 be b1 68 01 be dc b4 7f 3e ba 0e f4 3d
       -0.12833925 -0.12637593 0.24971336 0.11916871
0001d0 36 b9 34 be 3c 13 1f be 48 d1 e1 3d fb 84 b2 3d
       -0.17648777 -0.15534681 0.11026245 0.0871677
0001e0 ae 90 b9 3d f3 e7 6a 3d 9e 09 be bd f7 6a 18 3e
       0.090607986 0.05735011 -0.09279178 0.14884554
0001f0 87 1a 84 3e cc 33 cc bd ab c4 83 bd 7f 04 af 3e
       0.2580149 -0.09970817 -0.06433996 0.34183118
000200 93 81 99 bc 58 71 92 3d 31 20 a0 3e fb 9a 1e 3e
       -0.018738544 0.07150525 0.3127456 0.15488808
000210 9c b6 bd bd 5f e2 ee 3d eb 60 0d bd 06 cb 54 3e
       -0.092633456 0.116642706 -0.034516256 0.20780572
000220 40 67 de 3d 4e 9a 6b 3d 88 e9 86 3d 87 32 95 3d
       0.10859537 0.057520203 0.06587511 0.07285028
000230 c1 3a 9b 3d f1 6e 48 bd 1d 71 c2 bd 41 5d 0a be
       0.07579566 -0.048933927 -0.09494231 -0.13512136
000240 c0 00 2d 3c 19 af 9b 3d 81 f3 cf 3d f1 ae 27 3c
       0.010559261 0.076017566 0.101538666 0.01023458
000250 f1 64 92 3d d3 cd 28 3d d4 76 ee 3d 3b e5 75 bd
       0.07148159 0.041211914 0.116437584 -0.060033064
000260 d2 a6 a4 bd 29 80 12 3e 45 e8 a0 3d c5 8f 4e 3e
       -0.08039631 0.14306702 0.07856802 0.20172031
000270 14 a0 46 3e 9c fc 97 3d 5f 7d 48 3e 9a 75 79 bc
       0.19397002 0.07421228 0.19579075 -0.015225792
000280 05 96 ce bc 03 e5 72 bb 23 ae aa bd fe d6 c2 bc
       -0.02521802 -0.003706277 -0.08333995 -0.023784157
000290 fd 75 91 bc 1b 11 1f 3d be 50 14 be fa 93 5e be
       -0.017756457 0.038834672 -0.14483926 -0.21736136
0002a0 b1 7b 7b be e7 40 70 3e cf 6c fc bd 8d 3e e1 bd
       -0.24558903 0.23462258 -0.12325441 -0.10998259
0002b0 b2 65 db be ed 04 bc bd d0 c0 0a 3d 9f 12 81 be
       -0.42851025 -0.09180627 0.033875287 -0.2520952
0002c0 ab e5 94 be 39 11 06 bc 1a 88 21 3b d9 e8 87 bd
       -0.29081473 -0.008182817 0.0024647773 -0.06636209
0002d0 63 25 9c bd ac 4b bf bd a6 6e 79 bd 07 be ed bd
       -0.076243185 -0.09340605 -0.06089654 -0.116085105
0002e0 bf 6e 42 3e 54 f6 35 3c 42 45 de 3c 74 9f a1 3d
       0.18987559 0.0111060925 0.027132634 0.078917414
0002f0 b5 88 d3 3c fa 8d 07 3e b7 e1 8f be c8 93 10 bd
       0.025822023 0.13237754 -0.28101894 -0.035297185
000300 d9 0a 0f 3e bc 7e d9 bd 8b e3 81 bd 7b a4 bc bd
       0.13968982 -0.10619876 -0.063422285 -0.0921106
000310 a2 e7 45 3d cf 86 37 be cc d4 2c be 93 26 09 3d
       0.048316605 -0.17922519 -0.1687805 0.033484053
000320 01 b6 b5 bc dd 38 2f bd d2 b8 35 3d 3b 74 43 bc
       -0.022181513 -0.04277884 0.04436571 -0.011929567
000330 91 1f 91 3c a1 42 22 bd d9 b6 20 3d 5b 1f 96 3e
       0.017715247 -0.039614324 0.039236877 0.29320797
000340 fa 6e 71 bc e1 e1 47 3e af 55 ed 3d 4e a3 8c bc
       -0.0147359315 0.1951976 0.115886085 -0.017167713
000350 3a 96 2c be 4d d9 6e 3e 63 69 b3 3d 5e 23 27 be
       -0.16854182 0.23325081 0.08760335 -0.16322085
000360 7f 14 7d bd ca d2 fa bd 1b 67 81 be 0a e1 0f 3e
       -0.061787125 -0.12247236 -0.25273976 0.1405069
000370 a3 27 05 be ca 2a 4c 3c d9 f1 c8 3d 14 e6 8c 3e
       -0.13003401 0.012461374 0.09811754 0.27519286
000380 a7 42 a1 3c e2 09 b1 3e 92 c2 71 3e 8d e6 1f 3e
       0.019685103 0.34577852 0.23609379 0.15615292
000390 ec a0 5d 3e 89 5e 67 bc 96 76 37 3e 81 05 97 3e
       0.21643418 -0.01412166 0.1791633 0.29496387
0003a0 98 66 23 bd b1 f0 85 bc 9a d9 2f 3e 5c 08 4b bd
       -0.039892763 -0.016350122 0.17172852 -0.04956852
0003b0 6e a8 bb 3d b9 52 b7 3d 02 81 84 3d b7 43 2d 3e
       0.09162985 0.08951325 0.06469919 0.16920362
0003c0 a2 91 08 3e c7 63 29 3b 3e 3d 88 bd 7e 82 0f be
       0.13336805 0.0025846825 -0.06652306 -0.14014623
0003d0 26 8f 00 be d7 ad b7 bd 13 90 71 3d be 3f 2c be
       -0.12554607 -0.08968704 0.05897529 -0.1682119
0003e0 3f 40 94 3c 8f 74 92 3d f8 7b ad 3d bf 41 4a be
       0.018097041 0.07151138 0.08470911 -0.19751643
0003f0 54 95 19 be b0 7b f6 ba 07 77 ed bc 4e af 68 be
       -0.1499837 -0.0018805172 -0.02898742 -0.22723123

in_blocks.0.conv3.bias f4 [64]
000000 ba d7 99 be a4 56 2d be 1c 46 8b be ae 80 37 3d
       -0.300474 -0.16927582 -0.27201927 0.044800453
000010 07 1e ab bd 90 90 aa bd ed 25 d2 bd 87 17 0a bd
       -0.08355337 -0.08328354 -0.1026114 -0.033713844
000020 25 15 87 bd 67 85 ca bd 50 9e aa bd 5a bc a2 bd
       -0.0659583 -0.09888726 -0.08330977 -0.079460815
000030 08 1d 8d be 86 41 86 be 3d 33 98 be 98 fb 8d bd
       -0.27561212 -0.26221865 -0.29726592 -0.06932753
000040 31 70 16 3d ca f7 73 be 8d 19 02 be 63 8b 14 be
       0.036728088 -0.23824993 -0.1270506 -0.14506297
000050 3c ca 85 be ba b3 51 be a9 6b c3 bd 85 fe c6 bd
       -0.26130855 -0.20478716 -0.09542019 -0.097165145
000060 eb 16 94 be ae 56 6e bd 7a 6f 14 be 8b 06 6c be
       -0.28923735 -0.058188133 -0.1449565 -0.23049371
000070 64 89 63 bd 0c 04 37 3d 82 a9 ce bd 6d 9b 97 be
       -0.055550948 0.044681594 -0.10090925 -0.29610768
000080 95 33 0c be 33 a3 9c bd 11 a9 24 bc 1f 94 92 bd
       -0.13691552 -0.07648315 -0.010050074 -0.07157158
000090 b6 54 ae bb 1d 21 92 bd cf 10 f2 bd f6 f7 2c 3d
       -0.005320157 -0.07135222 -0.11819612 0.04222866
0000a0 00 70 5c bd bb c2 85 bd 7c 79 0c bc 52 5a 80 bd
       -0.05381775 -0.065312825 -0.008573886 -0.06267227
0000b0 49 69 27 bd 9e 6b 06 3c b7 12 49 bd d3 0c 4a be
       -0.040871892 0.008204369 -0.049090113 -0.19731455
0000c0 d9 84 3a be 0c 48 2c 3e 21 4e 8e bc f4 42 2a be
       -0.1821474 0.16824359 -0.01737124 -0.16627103
0000d0 0d f2 05 be 26 2b bc bd ad 55 d4 bd 97 7d 54 be
       -0.13080616 -0.091879174 -0.10367904 -0.20751034
0000e0 24 3d 2b bd ef df fa bd 58 79 82 be e5 ee 96 be
       -0.041806355 -0.12249743 -0.25483203 -0.29479137
0000f0 cc 86 11 be e4 ca 56 be 7e 10 77 be da 74 25 bd
       -0.14211577 -0.20975834 -0.24127385 -0.04039464

in_blocks.0.conv4.weight f4 [32, 64, 3, 3]
000000 40 5f d7 3d cd 51 b6 be de 3e 32 3d e4 61 8e bb
       0.10516214 -0.35609284 0.043516986 -0.0043451656
000010 a2 d6 a0 be aa e1 5f 3d 53 ee 05 3e bd 72 2d be
       -0.31413752 0.05465857 0.13079195 -0.169383
000020 76 54 75 3c 96 e5 04 be e5 ae 9b 3d dc 17 30 3d
       0.01497375 -0.12978205 0.07601718 0.042991504
000030 cc d5 00 3e 7f d5 4d bd a7 29 81 bd 21 4f ed bd
       0.12581557 -0.050252434 -0.06306773 -0.11587358
000040 82 21 cb bd 7c 0d 2f be dd 4b 28 be e5 8a a4 be
       -0.099185005 -0.17094988 -0.1643519 -0.32137218
000050 38 be 80 bd a4 4d a2 3c 49 23 ce bd 54 46 be 3c
       -0.06286281 0.019812413 -0.10065324 0.023226894
000060 c8 72 c5 be 3b c8 50 bd 4b 09 95 3c 46 c9 b7 be
       -0.38564134 -0.050972205 0.018192908 -0.35895747
000070 e7 42 2d bd 00 31 30 3d 77 99 75 be 74 78 81 be
       -0.04230013 0.04301548 -0.23984323 -0.2528721
000080 0f 1a 5d bd 05 15 7f bd 78 52 09 be 4c f3 d5 3d
       -0.05397993 -0.062275905 -0.13410366 0.10446796
000090 c3 1e af be c2 38 87 3c 14 ed 84 3c 03 4a 79 be
       -0.34203157 0.016506556 0.016226329 -0.2434464
0000a0 0f fc 3a 3c c6 8a b8 3b af f7 db bd 61 e4 1a 3d
       0.0114126345 0.0056317775 -0.10740601 0.037815455
0000b0 f4 bc 9c bc c8 05 7c bd 8c 8f 17 be 17 58 c3 3d
       -0.019133069 -0.06152895 -0.14800853 0.09538286
0000c0 e8 d0 9d bd 59 77 c6 bd db 32 ca bc 36 e3 84 be
       -0.07705861 -0.096907325 -0.024682453 -0.25954598
0000d0 49 62 f0 bd 86 a9 c3 ba a9 67 e0 be de 6c 6a 3d
       -0.117374964 -0.0014927841 -0.43829086 0.05723273
0000e0 11 2f 86 3d c6 b9 46 bd 4f 0a 6f 3d 3c 22 51 bc
       0.06551946 -0.04851701 0.05835944 -0.01276451
0000f0 8b 3c a2 be 0a 5a 79 bd 13 bd 23 3d 40 df 39 bf
       -0.31686816 -0.060876884 0.039975237 -0.7260628
000100 07 ba 00 3d b0 6e c0 3c c2 2d 5b be 36 62 c7 3c
       0.03142741 0.02349028 -0.21404174 0.024338823
000110 60 c7 27 3c 63 1c d8 be f3 c1 dc ba 00 01 62 3c
       0.010240406 -0.42209157 -0.0016842469 0.013794184
000120 c4 19 d9 bd 02 72 2a 3e 6c d3 a1 3d c8 43 9c bd
       -0.106006175 0.16645053 0.07901654 -0.07630116
000130 39 86 a3 3d ac 0f a0 3d c7 55 0a be a0 c0 55 bc
       0.07984585 0.07815489 -0.13509284 -0.013046414
000140 a9 87 19 3c fa 83 3a bd 50 ca 08 3d 8a 10 75 3d
       0.009370723 -0.04553602 0.033396065 0.059830226
000150 48 04 39 be c4 48 b2 bd 18 56 bf 3d cd 0d 68 bd
       -0.1806804 -0.08705285 0.09342593 -0.056653786
000160 ed f5 d4 bb c9 c0 7f 3d ec e8 94 be 08 bb cf 3d
       -0.006499043 0.062439714 -0.29083955 0.10143095
000170 e1 a0 8d bc 29 e2 e4 bd 69 53 cf 3d d9 21 e4 bb
       -0.017288627 -0.11175949 0.10123331 -0.006962043
000180 86 41 b5 be 80 21 95 bc 73 37 01 be 00 07 5a bf
       -0.35401553 -0.01820445 -0.12618808 -0.8516693
000190 ef 61 2e 3d 3f 3f b4 bb 4b c0 d2 bd fe a0 cd 3c
       0.042573866 -0.0055007036 -0.10290583 0.025101181
0001a0 e6 84 ba bc 9e 3d 8f be d6 3f 2c bc e4 fa ae 3c
       -0.022768449 -0.27976698 -0.010513267 0.021359868
0001b0 5b e8 06 be 11 ba 7b bd 3c 69 92 3e b9 6f b4 bc
       -0.13174574 -0.061456744 0.28595912 -0.02202593
0001c0 05 0d 4b 3c b7 f9 82 3d 47 8e 96 bd e0 db 97 3c
       0.012393241 0.063952856 -0.07351356 0.018537462
0001d0 6b 09 b3 3d 71 a5 87 3d bf a8 41 bd 26 2b 52 3e
       0.08742031 0.06623352 -0.04728007 0.20524272
0001e0 e6 b9 8f bb 44 77 3a bc 93 13 ff 3d 71 95 6a 3e
       -0.0043861745 -0.011380974 0.12454905 0.2290857
0001f0 16 f0 c3 bc ab 21 25 3e a6 f1 44 3e c8 f4 00 3e
       -0.023918193 0.16126125 0.19232807 0.12593377
000200 a3 89 c9 3c 37 02 82 3e b9 c9 bd 3b 09 c2 9c bd
       0.024601763 0.25392315 0.0057918695 -0.07654197
000210 18 91 20 3e 9e 04 f5 bd 82 d1 71 3d 24 1b aa be
       0.15680349 -0.11963771 0.059037693 -0.33223832
000220 71 9d 81 bd 3e d1 1e 3e 44 0d c0 bc 7e 6d 85 3d
       -0.06328858 0.15509507 -0.023443826 0.065150246
000230 19 f1 f1 bb 43 68 2a bd ba e5 72 3d 9e 8f 39 3d
       -0.0073834774 -0.041603338 0.059301116 0.04530298
000240 5b 27 9f bd 8e 74 f3 be a9 b1 e6 bb 25 ea 97 3d
       -0.07771178 -0.47549862 -0.0070402217 0.074177064
000250 a8 d0 2e be 74 cb 55 3e db 26 1d 3e 64 f9 92 bc
       -0.17071784 0.20878392 0.15346853 -0.017941184
000260 c4 7e b2 3e 97 1e 43 3e 6d 16 bf bc ce 9f ef bd
       0.3486234 0.19054638 -0.023326123 -0.11700402
000270 21 b2 8a 3e 4c 7e 0c bc 12 a9 99 bc 84 b9 68 3e
       0.27089027 -0.008575033 -0.018757377 0.22727019
000280 84 37 09 be 9b ec cc bd 7d 85 50 be 8a c8 e6 3d
       -0.13400084 -0.100060664 -0.20363422 0.112687185
000290 d3 1c 15 be 3a fc 9b bd 93 53 12 3e 6c 86 94 3d
       -0.14561777 -0.07616468 0.14289694 0.072522014
0002a0 5d b7 a6 bd 62 39 16 3e 34 e1 f1 3c 3a 7b 89 be
       -0.081404425 0.14670327 0.02952633 -0.26851827
0002b0 77 5c 9e 3d 9c d2 2f 3d f3 0e 2b bd 9b c1 58 bd
       0.0773248 0.042925462 -0.041762304 -0.05291901
0002c0 b4 13 85 3c 9f e5 70 be 79 84 9b be c7 72 40 3e
       0.016244747 -0.23525093 -0.30374506 0.18793784
0002d0 47 c4 b2 bd 99 41 f9 be 2c 86 d1 bd 7a 9c 0f 3d
       -0.08728843 -0.4868286 -0.102306694 0.035061337
0002e0 9c fd 14 bf 04 24 d0 bd 44 d7 ff 3d d8 ae 29 be
       -0.5819948 -0.101631194 0.124922305 -0.16570604
0002f0 99 88 6e bc 12 7a 2b 3e 83 1e ff bd a5 31 b5 bc
       -0.014558935 0.16745785 -0.124569915 -0.022118399
000300 20 98 8b 3e ab 76 6c be 35 fb ac bd 4c 1f c8 3b
       0.272645 -0.23092143 -0.084463514 0.0061072465
000310 0f 48 23 be 9b 54 13 3e 5a d0 b6 bd 59 ec 64 be
       -0.15945457 0.14387743 -0.08926459 -0.22355784
000320 59 ba a5 bd fc 0b 91 be 06 08 28 be 55 f2 8c bd
       -0.080921836 -0.28329456 -0.1640931 -0.06882159
000330 24 b1 57 be 02 d2 df bd 44 05 40 bd e5 26 79 bf
       -0.21063668 -0.10928728 -0.04688002 -0.97324973
000340 a5 ac 21 3d 9a b2 d3 bb 39 d4 3b be 41 9b bf ba
       0.039471287 -0.0064605 -0.18342675 -0.0014618413
000350 44 ed ac bc 92 73 e3 be 70 54 50 3c 9d ca 19 3c
       -0.02110923 -0.4442411 0.012715444 0.009386686
000360 7a ce 95 bd 0f 82 76 bd 35 aa 21 3d 37 fc 4a 3e
       -0.07314773 -0.060182627 0.039468963 0.19822775
000370 20 1a 80 be cb c0 1b 3e de 43 f9 3d 29 bb 91 be
       -0.25019932 0.15210263 0.12171148 -0.28463104
000380 3d cd 01 be 54 88 b4 bd be cd c5 3d 97 11 09 3d
       -0.12675948 -0.08815065 0.09658383 0.03346404
000390 24 a4 8a be 71 fc 40 bd 0e f9 d2 bd ca 34 d3 be
       -0.27078354 -0.047115747 -0.1030141 -0.41251212
0003a0 5a f2 03 be 04 38 5a be 95 76 06 be 09 a4 83 be
       -0.12885419 -0.21310431 -0.13131173 -0.25711086
0003b0 12 e0 9c 3d 0e 40 b9 3c bc db 4c bd 73 b5 0f bc
       0.076599255 0.022613551 -0.050014243 -0.008771288
0003c0 55 45 49 3d 57 be ce 3c b3 87 6c 3e 21 63 8a be
       0.049138386 0.025237245 0.2309864 -0.27028754
0003d0 87 96 e3 be 4f b7 b0 bd 38 8a b7 bd 2b e5 08 be
       -0.4445078 -0.08628713 -0.0896191 -0.1336867
0003e0 e2 42 0a 3b fd 2e ee be 2f ab e1 bd 9f c6 39 3b
       0.0021096994 -0.46520224 -0.11018979 0.0028347147
0003f0 51 95 0c be 9c 8d 08 be 40 7a 16 be 77 9f 31 3e
       -0.13728835 -0.1333527 -0.14695072 0.17345987

in_blocks.0.conv4.bias f4 [32]
000000 61 85 f5 bd 8c ba b8 bd 31 12 1d be 82 c2 ff bc
       -0.11988331 -0.09019956 -0.1533897 -0.031220678
000010 88 fa c3 bd f1 98 e3 bd a1 9f c1 be bc dc e2 bc
       -0.095692694 -0.11113156 -0.378171 -0.027693145
000020 41 64 a9 bd e3 de b8 bd be e2 0f be 71 fc 04 be
       -0.08271075 -0.09026887 -0.14051339 -0.12986924
000030 d6 2f ab bd 4e a6 97 bd c7 ae 98 bc 96 da 2b be
       -0.08358733 -0.07404767 -0.018638028 -0.16782603
000040 cd 0d 03 be b5 4e c9 bc 6d 67 e6 be 7a a7 9f bd
       -0.12798233 -0.024573663 -0.45000783 -0.077956155
000050 13 6d 83 3c dc 94 0b be 38 40 6d be 70 41 df bd
       0.016043222 -0.13631004 -0.23169029 -0.10901153
000060 46 4d 5a bc 60 87 f0 bd e1 da b5 bd c5 9d 5c bd
       -0.0133240875 -0.11744571 -0.088796385 -0.0538614
000070 2e dc a4 bd 14 6f 34 be 00 54 14 be d4 a0 80 bd
       -0.080498084 -0.17620498 -0.14485168 -0.062806755

in_blocks.1.conv1.weight f4 [32, 1, 3, 3]
000000 70 c4 94 3e 8d f3 83 3e ae 6d 58 be e3 6c 1f 3e
       0.2905612 0.25771752 -0.2113559 0.1556888
000010 c3 8d 2b bd 8a 49 ba 3d b2 0d 69 be ab d3 4b 3e
       -0.04188324 0.09096058 -0.2275913 0.19904964
000020 44 ce ef 3d 98 ad 74 3d 9c 77 c3 bd 09 34 a1 bd
       0.11709264 0.059735864 -0.09544298 -0.07871253
000030 a0 af 74 3e 25 49 3a be f3 be 6a 3d 08 a2 9c bc
       0.2389512 -0.18191965 0.05731101 -0.019120231
000040 89 e8 88 3d 42 d6 4b bd 5c 61 a3 3c 35 92 09 be
       0.066849776 -0.04976488 0.019943886 -0.1343468
000050 53 81 61 3d 2a 09 35 be 4f 8c fa bd b6 50 5c be
       0.055054974 -0.17679277 -0.12233793 -0.21515164
000060 55 dc 2e be 66 a2 91 be 46 b5 83 3e 79 a6 a6 bc
       -0.17076237 -0.28444213 0.25724238 -0.020343052
000070 ea 48 73 3e 8a 2f 32 3e 8f 2c ef bd 0a 3f 9d be
       0.23758283 0.17400947 -0.11678421 -0.30712157
000080 c2 9c a2 3d 61 56 a5 3e 78 31 b3 be 9f c6 42 3e
       0.079400554 0.32292464 -0.3499868 0.1902108
000090 17 44 b7 be 01 2f 70 be c8 da e0 3e df 73 18 be
       -0.35794136 -0.2345543 0.43916917 -0.14887951
0000a0 2e 69 f1 bd 46 fd ab 3e f5 43 3c be 5a f8 83 bc
       -0.117876396 0.3359167 -0.18385299 -0.016109634
0000b0 b5 85 81 3e d9 b2 a4 3e 48 a6 26 3d 7a a2 99 3e
       0.25297323 0.321677 0.040685922 0.30006772
0000c0 02 af 82 be 9a 86 b6 be c6 dc 2a bb ab 2d ad 3e
       -0.25524145 -0.35649568 -0.0026071533 0.33823904
0000d0 8c 46 05 3e 62 13 0c 3e fa 65 1d 3e 7f 62 25 be
       0.13015193 0.13679269 0.15370932 -0.16150855
0000e0 e6 40 2e 3e bd 2e c6 bd 03 4d 90 be da 38 1f 3e
       0.17016944 -0.09676883 -0.28183755 0.15549031
0000f0 7a 1a 9c 3e 8c 7a a8 be 71 eb 3a 3e fd 10 08 3e
       0.3048895 -0.32905996 0.18253876 0.1328773
000100 9f 08 99 be 6f bb 98 3e 69 f5 84 bd 6a ae 1e be
       -0.2988939 0.298305 -0.06492121 -0.15496221
000110 f5 07 c9 3d 1a 4e c0 bd 28 f2 bd be 3b 48 91 3e
       0.09815971 -0.09389897 -0.37098813 0.2837542
000120 03 5f 9e be 39 61 b8 3e d1 1b 1b bd 14 b0 06 be
       -0.30931863 0.36011675 -0.037868325 -0.13153106
000130 b2 72 49 be 80 bb 46 be 1d 28 9d be fe e8 07 3e
       -0.19672659 -0.19407463 -0.30694667 0.13272473
000140 36 42 51 3e 83 a6 83 be d5 5a 3f bd d2 98 4b be
       0.20435414 -0.25712976 -0.046717484 -0.19882515
000150 38 67 82 3e c3 f0 2c be dd ef 65 3d ab 5a 12 3e
       0.25469375 -0.16888718 0.056136955 0.142924
000160 e7 ce 23 3e ae fe ba 3e 20 90 18 3a 4e 37 84 3d
       0.15996896 0.3652243 0.0005819816 0.06455861
000170 50 9b 66 3c f0 c0 4f 3e d1 47 7b 3e fe aa 9b 3e
       0.014075115 0.20288444 0.24539115 0.30403894
000180 8a b1 6b be 25 bf 43 be d0 c6 12 3d 53 ba b1 bd
       -0.23016945 -0.19115885 0.035834134 -0.08678117
000190 ca f3 aa 3d ee a2 d5 bd 20 99 cb 3e 17 9b f3 3e
       0.0834728 -0.10431467 0.39765263 0.47579262
0001a0 3a 4d 66 3e e4 e9 c7 be 3a 20 bb be 76 aa f9 bd
       0.22490397 -0.39045632 -0.36548024 -0.12190716
0001b0 fe 47 4e be bc 21 9c 3e 32 ce d6 3d a6 c3 94 3e
       -0.2014465 0.30494487 0.104885474 0.29055518
0001c0 c7 bb 4f be 24 7f 03 be 65 29 19 3e d8 b3 46 bc
       -0.20286475 -0.12841469 0.14957197 -0.012127839
0001d0 35 8b b7 3e c8 c8 e3 3e a5 f6 cf 3d 4a 58 97 be
       0.35848394 0.4448912 0.101544656 -0.29559547
0001e0 6f 59 43 3d 40 4b 98 3d c3 b2 c9 be 63 24 2c 3e
       0.047692712 0.07436228 -0.39394197 0.16810755
0001f0 d0 b6 c3 bd fa 63 a6 bc f5 5d 5c be 40 e7 26 be
       -0.09556353 -0.020311344 -0.21520217 -0.16299152
000200 de 16 31 3d 79 e8 e8 bd 97 8c 2e be 69 d9 7b 3d
       0.0432347 -0.11372466 -0.17045818 0.061486635
000210 53 5f b9 3e 6a 6b c9 3e 46 3d 19 3d 55 ab c1 3e
       0.3620554 0.39339763 0.03741195 0.37826028
000220 01 f0 93 bd c9 f9 15 be 31 7b 9b 3e 5f 31 ce 3d
       -0.072235115 -0.14646067 0.30367425 0.100680105
000230 8b da 33 be 01 6e 35 bd 61 a7 86 be dc d1 b6 bd
       -0.17563836 -0.04429436 -0.26299575 -0.08926746
000240 cf b1 88 be c0 f5 b2 3d e1 98 3a 3e 31 a2 0e 3e
       -0.26698157 0.08738279 0.18222381 0.13929059
000250 85 ad 6c 3d 5c 57 05 3e c9 1c 18 3e fb 62 15 3e
       0.05778267 0.13021606 0.1485473 0.1458854
000260 13 9a 12 bd 69 70 bb 3d c1 6a ca bd 45 67 c1 3d
       -0.035791468 0.091523 -0.09883643 0.09443525
000270 87 37 82 3e d2 e5 fb 3d 34 ec 08 be 10 c7 cf bd
       0.2543299 0.12299694 -0.13371354 -0.1014539
000280 26 b8 98 bd a6 dc a8 3e d2 a9 ce 3e 62 96 ca 3d
       -0.074569985 0.3298084 0.40363938 0.098919645
000290 c1 24 dc be d2 0e bc 3e 62 91 ad be af 9d 6a bd
       -0.4299679 0.36730057 -0.3389998 -0.057279285
0002a0 53 04 8a 3e 0a 12 bb be 11 1e 13 bd db 4e 72 3e
       0.26956424 -0.365372 -0.035917345 0.23662893
0002b0 0e 51 fe bd 2a b0 7c 3e db 00 3f 3e b2 33 cf be
       -0.12417804 0.24676576 0.1865267 -0.40469128
0002c0 f7 66 78 3e 6f 14 60 3e 61 f3 27 be d3 df c9 3e
       0.24258028 0.21882795 -0.16401435 0.39428577
0002d0 7b a7 a3 be 53 42 a4 be 65 4f 9f 3d 68 61 0b 3e
       -0.31963715 -0.3208185 0.07778815 0.13611376
0002e0 1c bb 51 3c 9e d2 83 be 4c 8f 8f bc fb be 7f 3e
       0.012800958 -0.25746626 -0.017524384 0.24975197
0002f0 10 13 38 be 22 64 82 bd 18 f6 ec 3d 99 17 f8 3d
       -0.17976022 -0.06366755 0.11570376 0.12113876
000300 66 1a 1d be 1a 3b 8e bd 0c ce a0 3e 6a 36 90 3e
       -0.15342101 -0.069448665 0.314072 0.28166515
000310 c3 6d 9c 3e 04 f3 6b bd 67 28 96 be 42 48 c9 bc
       0.30552492 -0.057604805 -0.293277 -0.024570588
000320 e0 df 20 be 80 8d 8c be 4e 5f 7f 3c b2 eb e2 3e
       -0.15710402 -0.27451706 0.015586687 0.44320446
000330 94 04 b4 be 93 1c 3b bd 55 11 ee 3e cb 38 af 3e
       -0.35159743 -0.045681547 0.46497598 0.34223017
000340 2d d4 5b be d3 31 36 be 89 5e de 3e 5e 56 71 bd
       -0.21467657 -0.17792444 0.434315 -0.058920257
000350 67 9a 46 be ac 3e 56 be 11 eb 65 bd 35 a7 d9 3e
       -0.19394837 -0.20922345 -0.05613238 0.4251038
000360 e9 4f 78 be 13 cd bc be b5 84 89 3e 10 61 86 3e
       -0.24249233 -0.3687521 0.2685906 0.26245928
000370 5c 85 8b bd c3 55 b9 bd 6a 55 17 3e a6 80 61 bd
       -0.06812546 -0.09049561 0.14778677 -0.05505433
000380 cd c5 85 3e ac 0c 9b 3e 1b 75 b2 3e 37 c0 b0 3d
       0.26127473 0.30283105 0.3485497 0.08630412
000390 e4 da 05 be 6b ad a2 be 46 ca 1c 3e 23 19 46 3d
       -0.13071781 -0.31772932 0.15311536 0.048363816
0003a0 80 5a b0 3e 6a 28 00 3e 3a 43 10 3e 2e bd 30 be
       0.34444046 0.12515417 0.14088145 -0.17259666
0003b0 4f f7 ec 3e fe 57 0f be d8 9a 8c bd d7 35 ee bd
       0.4628243 -0.1399841 -0.068654716 -0.11631363
0003c0 00 7d b9 3c a3 be 88 3d 76 e5 4b be 47 57 a3 3e
       0.022642612 0.06676986 -0.19911751 0.31902525
0003d0 5e 30 aa bc fe 05 8b be fb eb a4 be 1d 34 f1 ba
       -0.020775016 -0.2715301 -0.3221129 -0.0018402372
0003e0 35 da ac be 01 ba 69 3e 23 c8 98 3c 67 bf 3c 3e
       -0.3376023 0.22824861 0.01865012 0.18432389
0003f0 e6 49 5e 3d 71 23 d1 3d 66 0d 3a be 70 7a 5d 3e
       0.054269694 0.10211838 -0.18169174 0.21628737

in_blocks.1.conv1.bias f4 [32]
000000 c0 bc 31 3e 20 94 15 bd b3 88 d4 be 9b 04 15 bd
       0.17357159 -0.036518216 -0.41510543 -0.036381345
000010 ce d6 ad bd fd 1e d3 3a de 81 a3 bd fc 9e 57 be
       -0.08488236 0.0016107258 -0.079837546 -0.21056741
000020 2f 21 7d be fa 3d d8 3c 9a e1 ce 3d 4a 84 b0 bd
       -0.2471969 0.02639674 0.10101624 -0.08618982
000030 c7 3f 6e 3c 7e 5f c2 bd ca 27 f3 3c 8d d7 a1 bd
       0.014541573 -0.0949087 0.029682059 -0.07902441
000040 82 cb 39 bd 4d 88 c5 3c 93 1d fe bd 07 23 99 bd
       -0.045360096 0.024112845 -0.124079846 -0.07477384
000050 fc 13 d3 be 0d a2 9f bd a4 42 31 be f5 d6 01 bd
       -0.41226184 -0.077945806 -0.17310578 -0.03169914
000060 af 71 c4 bc 0d 7e 9b bd 8c 6e 29 bd c5 86 56 be
       -0.02397999 -0.07592402 -0.04136519 -0.20949848
000070 e3 e4 f5 3d b4 b1 eb bd 1c 09 78 3e b0 ef 8a bd
       0.12006547 -0.115085036 0.24222225 -0.06783998

in_blocks.1.conv2.weight f4 [64, 32, 3, 3]
000000 80 c7 19 be 72 eb d3 3d 46 68 2c bd 60 aa a0 3d
       -0.1501751 0.10347642 -0.04209163 0.078449965
000010 46 da 81 3d e0 02 78 3d 7a e5 05 be 38 da 14 bc
       0.063404605 0.060549617 -0.1307582 -0.0090852305
000020 18 b6 bf bc d9 50 fa bd 5e 11 4d be 1a e8 1f be
       -0.023402259 -0.12222452 -0.20026156 -0.15615883
000030 61 1e 79 be 2e 20 f7 3c 3c 27 08 be 32 9b 84 bd
       -0.24327995 0.030166712 -0.13296217 -0.06474914
000040 9b c8 5a bc 1b f5 03 be a5 c9 fa bb 89 20 95 bd
       -0.013353492 -0.12886469 -0.0076534324 -0.07281596
000050 b2 05 82 3c 24 a7 f8 3b 6f c4 2e 3e a8 9d 44 39
       0.015871856 0.007588284 0.17067121 0.00018750748
000060 ab fe 7c 3e 2d 6e 0b 3e 9c 25 4b 3e d2 e8 b5 bd
       0.24706523 0.13616247 0.19838566 -0.088822976
000070 dd 15 dd 3d 24 cc ec bd 30 7b 8b 3d ec 89 a0 3e
       0.10795186 -0.11562374 0.068106055 0.31355226
000080 ff de 3a 3e cf 17 22 3d cf bc 99 3c fa 63 07 3e
       0.18249129 0.039573487 0.018766789 0.13221732
000090 1b bf 31 3e 5f 7f 40 3e d0 8b e0 3d 25 43 60 be
       0.17358057 0.18798588 0.10964167 -0.21900614
0000a0 de 3d ce bd 28 8b c1 be b1 fe a9 be 9e a1 a7 bb
       -0.10070394 -0.3780148 -0.33202127 -0.005115702
0000b0 d1 15 4f 3c c6 1a 2a 3e 66 7b cf 3d 08 75 48 3e
       0.012639479 0.16611776 0.10130958 0.19575894
0000c0 fa 3a c9 3d 88 29 b8 3d c1 ac 21 3e 6b 1b e1 3d
       0.09825702 0.089922965 0.15788557 0.10991558
0000d0 c3 21 b3 bb b1 48 a1 3d a9 56 e6 bd 87 c4 05 3e
       -0.005466671 0.07875193 -0.11246998 0.1306325
0000e0 1b 80 50 3d 5c 56 e7 bb e3 ca 5b be a5 a5 40 bb
       0.05090342 -0.0070598554 -0.21464114 -0.0029395607
0000f0 2c f5 00 bd 8f b5 c9 3d bd ff 1a 3e f5 f0 58 3e
       -0.031483814 0.09849083 0.15136619 0.21185668
000100 29 5f 9d 3e 13 8f 88 3e 0c 8c ce 3d 33 54 24 3e
       0.30736664 0.26671657 0.100853056 0.16047744
000110 7b 63 c8 3d 79 25 5a bc 96 57 0d 3e 9a dd 5c bd
       0.097845994 -0.013314598 0.13802943 -0.053922273
000120 de 7b 04 be 42 31 98 bd 1e df 17 be 5f 0e fe bd
       -0.12937877 -0.0743127 -0.14831206 -0.12405085
000130 cb 73 0b 3d 2c ac 09 3e 54 b3 f8 3d 71 71 ee 3c
       0.034045976 0.13444585 0.12143579 0.029106827
000140 ed a8 39 3e 61 71 d4 bd 4e ea 9a bd f5 2b 87 3c
       0.18130846 -0.10373188 -0.07564221 0.016500453
000150 16 e7 48 be 20 ea fd bd ee 9a 96 be c1 6a 63 3c
       -0.19619402 -0.123981714 -0.29415077 0.013880433
000160 e8 d2 36 3e e3 94 e0 39 a6 42 55 bd 55 ff 67 3d
       0.17853892 0.0004283554 -0.052065514 0.056639988
000170 8a e9 73 bc 94 a2 e8 bd 8a 13 05 3d 00 80 66 be
       -0.014887223 -0.11359134 0.032489337 -0.22509766
000180 a9 f0 9f be 9a 32 9b be 11 9f 56 be 00 c5 83 3a
       -0.31238297 -0.30312043 -0.20959117 0.0010053217
000190 8d 90 47 bd e8 f5 25 3c a9 bf ca 3d ee ae 25 3e
       -0.04872184 0.010129429 0.098998375 0.16180012
0001a0 7f 5d 0a 3e 2d bd ec be ad 1f c3 be 02 f6 f5 be
       0.13512228 -0.4623808 -0.38110104 -0.48039252
0001b0 1f 47 df 3d e0 15 aa 3d 05 8e 49 3e 0c 88 43 be
       0.10902237 0.083049536 0.19683082 -0.19094867
0001c0 8e 46 04 be 64 19 49 be 50 e2 88 3d e9 ae b9 bb
       -0.1291754 -0.19638592 0.06683791 -0.005666603
0001d0 fd 1c 1c bd 1b 24 9e 3e b4 ee 7e 3e 72 ff 21 3e
       -0.038113583 0.3088692 0.24895746 0.15820101
0001e0 f7 db 04 3e 4f e7 a8 3d 1d 1a 0e 3e 26 04 33 3d
       0.12974535 0.082472436 0.13877149 0.043705128
0001f0 1a b7 82 be 71 0c 0c bc d0 bb cf 3d 5a 62 74 3b
       -0.2553032 -0.008547888 0.10143244 0.0037290067
000200 1b 5b 1b bd b1 91 78 be a3 5e 9b be 90 4c 82 be
       -0.03792868 -0.24274327 -0.3034564 -0.25449038
000210 7d 71 b2 3d 88 a6 75 3d 25 0c 41 3e 52 ab 73 bd
       0.087130524 0.05997327 0.18852289 -0.059489556
000220 0b 56 27 bd 06 3b bf bd 01 7f 37 3e 94 18 61 bd
       -0.04085354 -0.0933743 0.17919542 -0.05495508
000230 69 6b 1f 3e 88 45 26 bc 89 5f fd bd be ac 11 be
       0.15568317 -0.0101484135 -0.123717375 -0.14226052
000240 58 dd ae 3e 72 f3 d4 3d 85 6c ec 3d 83 04 c5 bd
       0.34153247 0.10397996 0.11544136 -0.09620001
000250 74 d4 97 bc 37 66 61 bd be f4 8f bd 05 6d 5d bd
       -0.018533923 -0.05502912 -0.07029103 -0.054059047
000260 98 67 f7 bc 29 1c e0 bd 4f 07 b7 3d b6 4e 04 3d
       -0.030200765 -0.10942871 0.08936941 0.032301627
000270 70 ac 30 be f8 a2 5a be 5f bc 33 be 61 6f 6e 3d
       -0.1725328 -0.2135123 -0.17552327 0.058211688
000280 1e e9 72 bc 4a 75 74 bd 26 aa 8a 3d d4 6e 47 3d
       -0.014826087 -0.059682168 0.067707345 0.04868968
000290 d2 35 42 3e 05 91 64 3d ac c9 26 bd 64 94 5e 3d
       0.18965843 0.055802364 -0.040719673 0.054340735
0002a0 90 11 69 bc 62 02 11 be 4d 20 83 bc 16 85 96 3e
       -0.014225379 -0.14161065 -0.016006613 0.29398412
0002b0 8e 04 83 3e 69 68 58 3e 1a 87 af 3c 93 64 6d bd
       0.25589412 0.2113358 0.021426726 -0.057957243
0002c0 c5 0f 35 3e 6c 05 1e 3d bc 7c 8e 3d f5 9d 8b 3d
       0.17681797 0.03857939 0.06957385 0.06817237
0002d0 b5 34 f7 3b 71 42 0f be 6c 9b 10 be 14 ca 4c be
       0.007544125 -0.13990189 -0.14121789 -0.19998962
0002e0 6d 3e b6 bc 44 00 9f bd fb fb 20 3d f0 6d 26 3b
       -0.022246564 -0.077637225 0.039302807 0.0025395118
0002f0 10 10 07 3d d5 e3 98 3e 6b c6 94 3d 99 af 34 3e
       0.032974303 0.29861322 0.07264408 0.1764511
000300 81 88 52 bc d7 34 2f bd 12 f1 93 bd c9 e3 e0 bd
       -0.012849928 -0.042775 -0.07223715 -0.109809466
000310 be 6f 80 bc 5f 6b 48 be 76 ba c5 bd 67 8a 02 be
       -0.015678283 -0.19572209 -0.09654705 -0.12748109
000320 d0 1c 62 be fe 84 8f be be 0e 6c be 4c 71 84 be
       -0.22081304 -0.28031152 -0.23052499 -0.2586769
000330 3a 64 3b be 9c 9e 0c be 83 ef 2b bd d9 a1 fe 3d
       -0.18299952 -0.1373238 -0.041976463 0.12433214
000340 c1 f4 a7 bc e7 48 b8 bd 89 71 91 bd a3 0a 43 be
       -0.02050245 -0.0899828 -0.07101733 -0.19047026
000350 82 89 03 bd 65 f3 21 3e 0b be e8 3c d6 47 1f 3d
       -0.03211356 0.15815504 0.028410932 0.038886867
000360 0b 0c e8 bc e8 20 03 bd 3c ee cd bd 64 28 6f be
       -0.028326055 -0.032013804 -0.10055205 -0.23355252
000370 ba bc 29 be 63 a5 29 be 37 10 f1 bd 54 d5 69 3d
       -0.165759 -0.16566996 -0.11770671 0.05708821
000380 da f3 9f 3d 58 e7 ba 3e 74 4d 54 3e 04 4d ae 3e
       0.07810183 0.36504626 0.20732671 0.34043133
000390 dc 38 58 3e 0f c0 39 3e 81 91 ee bc 62 d2 14 3d
       0.2111544 0.18139671 -0.029122116 0.03633345
0003a0 0d 97 12 bd 43 e7 f2 3c 35 9c 11 be 64 73 1b be
       -0.035788585 0.02965129 -0.14219745 -0.15180737
0003b0 1d 7f 2d bd 7c 2e f9 3d b7 58 14 3e b5 0c f3 3d
       -0.042357553 0.12167069 0.14486967 0.11867658
0003c0 54 b5 55 3e 1d 41 bf 3d bc 85 78 3d 88 be 45 3e
       0.20869952 0.09338591 0.060674414 0.19310963
0003d0 a0 af 4e 3e 71 3e e7 3d 9c e7 bb 3d 93 0e c9 3a
       0.20184183 0.11291207 0.09175035 0.0015339426
0003e0 d5 19 c4 bd 34 7c 39 bd 11 ac cf 3d 0f 8f bc 3d
       -0.095752396 -0.045284465 0.10140241 0.09206974
0003f0 06 18 a6 bd 2b 96 fe bd 7d 17 06 be ea e1 42 be
       -0.08110051 -0.12430986 -0.13094898 -0.19031492

in_blocks.1.conv2.bias f4 [64]
000000 68 ad 90 bd 96 93 48 be b8 bb 54 bd f1 e9 b4 bc
       -0.070643246 -0.1958755 -0.051936835 -0.022084208
000010 33 69 e2 bc 39 c8 a3 bd 9e 42 26 be b6 ee be 3b
       -0.027638054 -0.07997174 -0.1623635 0.0058267964
000020 05 9f 5c bd 1e ec 10 3d 68 d1 81 bc d1 2b f2 bd
       -0.05386259 0.03538143 -0.015846923 -0.118247636
000030 c2 05 76 bc f0 4e 32 be 64 f4 91 ba 3b 6b 69 be
       -0.015016021 -0.17412925 -0.0011135456 -0.22794811
000040 34 7f d0 bc 94 4c 0f bd af 2c 7c 3d eb 6e 9c bd
       -0.02545128 -0.03498514 0.06156605 -0.076383434
000050 73 13 3a 3c 4f d2 3e be 52 14 08 be 22 67 05 be
       0.011357176 -0.18634914 -0.13289002 -0.13027623
000060 2e ba 71 bd 51 dd be bd 24 8b c8 bd 6a 47 fc bd
       -0.059015445 -0.093195565 -0.09792164 -0.12318309
000070 ea ae e3 bc 8c c8 39 be fa 44 07 be 3e 3c c7 bd
       -0.027793366 -0.18142909 -0.13209906 -0.09728287
000080 4d 65 c7 3b d2 2d e5 3b 06 f0 89 bd 26 45 12 bd
       0.006085074 0.0069939876 -0.06735234 -0.035710476
000090 a5 57 59 be c2 0c ce bd 20 be b2 bc c0 0c a2 b9
       -0.2122484 -0.10061027 -0.021819174 -0.00030908547
0000a0 21 e8 06 be 7c 79 81 bd b3 79 cf bd 2b 57 56 be
       -0.13174488 -0.063219994 -0.10130634 -0.2093169
0000b0 17 8a 39 be e0 0f ec bd d1 05 b1 bc 9d 56 26 bd
       -0.18119083 -0.115264654 -0.021609219 -0.040609945
0000c0 bd a0 04 bd 55 55 72 bd 94 0a 84 bd fe da 91 bd
       -0.032379854 -0.05916341 -0.0644733 -0.071218476
0000d0 c3 bc f0 bd 60 0c a4 bc 7a b0 da bd 76 e3 4d be
       -0.117547534 -0.020025432 -0.106781915 -0.201063
0000e0 ad b3 56 be 0a 6c a6 bd af b4 8f bd 3c 4b b6 bd
       -0.20966978 -0.081260756 -0.070168845 -0.089010686
0000f0 cf 14 04 be 63 38 df bd 34 2d b1 bd 10 bc 58 bd
       -0.12898563 -0.10899427 -0.086512 -0.052913725
